src/bread/algo/lineage/saved_models/best_model_thresh8_frame_num8_normalized_False.pth (torch, 19423 bytes, 4 tensors)

layers.0.weight f4 [64, 64]
00000000: d8e2 0f3d 2ef4 8cbd 4568 75bd 48d3 623e
00000010: e929 06bf e2d1 81be 0d82 9f3d 7ce5 6a3c
00000020: 77b1 bcbd 8f8c c9bd dcbb e93d 313c c7bc
00000030: bd82 3dbe 3fe0 2d3d 37ff 143e 6b72 3dbe
00000040: 6881 bf3d 524c cd3d 0190 05bd 6dd2 9dbd
00000050: 4726 c13e f189 643e 3ae4 04be 47a3 193e
00000060: 6aa2 aa3d d448 66bd 8825 50bc d6d9 e03c
00000070: 8f7a 803e 72ba d0bd bab0 143d 52c9 e43c
00000080: 7df2 403c f86d 4bbd aa0f 5bbd c8c2 e73d
00000090: 55e5 38be 6ef1 8f3c 87f5 8f3d 2f4e 52bd
000000a0: 1a53 7bbc f30c 3cbd 00ec 773d 5791 f33d
000000b0: c5ff 843a 927c a1bc a8a2 b53d 2660 a6bd
000000c0: 328e 3f3d fab6 efbd 5630 5fbe 6f5e 73be
000000d0: 8f6e 663e 1343 893e ed61 59bc 6e2b b83d
000000e0: fc7c f83d 63f5 a5bc 490c 0c3e f48c 4b3d
000000f0: e416 563e 2948 31bd d85a 2abd 5227 563e
00000100: 916a f03d c88b 2bbd 383c 313e 7ac7 723d
00000110: b6f9 9abd b585 86bc 7ac0 7f3e bfff ed3d
00000120: cbb8 253e 4d9d b53d a153 1f3e b1e4 793e
00000130: fb1b e83d 7727 a33e f3a4 733e 815c 833d
00000140: a427 3bbf 763f 27bf 3703 01bf 7ba9 1ebf
00000150: eb7a c2be 9bd9 10bf be4f c3be 594c 1cbf
00000160: fcac 17bf c6de e2be b80e e2be 8bdb c2be
00000170: ce5e adbe d17e a0be c570 07bf 4cce cc3d
00000180: c69e be3d bbbe 423d 8137 0dbb 22cc 72be
00000190: 0204 8a3e 07b7 723e 21e8 c6bc c28e 643d
000001a0: 2af9 223e 7560 983d 7bc0 5e3d ec9a b93d
000001b0: 481c 423e 8be5 e83d b5a4 473e fa42 8e3d
000001c0: 8029 553d dccc 823c ed32 703d 80bc 113e
000001d0: 3cfc 3f3d 126d 15bd b2df 9d3d 5341 ba3d
000001e0: e272 cb3d e26f 223e dc1c 693e 7ca0 123e
000001f0: fed1 9b3c fec8 3e3e 401b 1b3e ebbb 5ebe
00000200: a628 273e 88e3 87bd f56f d73d 88d3 d73d
00000210: dbb8 9ebe 7032 a33c 790a 813d 0fe6 ccbc
00000220: 9376 0fbe d2b9 9bbd ab81 933d 3048 f2bc
00000230: 733d 1abb 118a 91bd b60c 263e a863 19be
00000240: 79a3 3f3d ba51 56bd 27d9 c33d ceba 893e
00000250: a117 86be 98ee 75be 5c8b 593e b745 9ebc
00000260: 34d3 a5bd ddd8 31bd 3079 333e a3fb 90bd
00000270: e6f1 b1bd 7d4f 9d3d 1f7a 433e e554 dbbd
00000280: ed70 1b3e d2bc 933d d161 343d f368 6dbe
00000290: 19dc 063f a7b7 883e 007b 22be 4e0d 363e
000002a0: d827 7d3e eb3b 43bd ca9e b1bc 9f23 3e3e
000002b0: 646d b93e 5918 cebc 70fe 05be 876b 393a
000002c0: 3273 5fbd 7882 8a3d e304 063e 33d2 00be
000002d0: 8bff 343e 348c 183e 258e b03c e181 3bbc
000002e0: 63c2 0e3e 0e59 e03d 92cf b93d 8eee 363d
000002f0: 5456 723d bd69 a93d a05a 9cba 47b9 693c
00000300: 4b99 973d e111 bb3d ab97 f8bc fd98 10be
00000310: 0817 b83e 3934 583e 8fc9 a4bc df73 033e
00000320: 9ad4 d33d 6496 9bbc af99 093e 05bf f73d
00000330: 58e8 6c3e d592 99bd a741 9abd deb5 86bc
00000340: 4bf5 173d 7b07 47bd d1c2 b53d 3b16 073e
00000350: fdb5 7fbe 76b4 d4bd 75cf eb3d 980e 573e
00000360: 0374 853c 5f1d d63d fe02 623e 1a0d 823d
00000370: e244 c5bc 3830 5d3e 9787 263e 1275 83bb
00000380: cadd fb3c 04c9 29bd 1edf c93d 62fa fa3d
00000390: 3d92 82be 0019 20be 1cc3 763d 7eeb 383e
000003a0: cf34 3a3d 7442 603e 2f25 5f3e 467e 433e
000003b0: 35fe a43c 5902 8a3d 3628 c23d d63f 30be
000003c0: 6f87 a9be e107 20be 15cb c7be d457 ebbe
000003d0: 83da 9ebd da72 b4be ba65 e7be 29ad 75be
000003e0: a842 c0be b4ce bbbe 174d cebe 50a0 063d
000003f0: 1ab5 9ebd a7ff bfbe 1d5f cbbe 30e5 86bd
0.035128444 -0.06882511 -0.059913892 0.2215091 -0.524077 -0.2535544 0.07788477 0.01433694
-0.09213536 -0.098412625 0.114127845 -0.024320694 -0.18506904 0.042450186 0.14550482 -0.18500678
0.09350854 0.100243226 -0.032608036 -0.07706151 0.37724516 0.22318245 -0.12977687 0.15003692
0.08331759 -0.056221798 -0.012704261 0.027447622 0.25093505 -0.101918116 0.036301352 0.027928028
0.011776564 -0.04966542 -0.053481735 0.113164485 -0.18056233 0.017571177 0.070292525 -0.051344093
-0.015339637 -0.045910787 0.0605278 0.11892956 0.0010147026 -0.01971272 0.08868915 -0.081238076
0.046766467 -0.11704822 -0.21795782 -0.23766492 0.22503112 0.26808986 -0.013267976 0.089926586
0.12133214 -0.020258611 0.13676561 0.04969497 0.2090717 -0.043281708 -0.04159054 0.20913437
0.11739076 -0.041881353 0.17308128 0.059272267 -0.0756716 -0.016421178 0.24975768 0.11621045
0.16183774 0.08867893 0.15559246 0.24403645 0.11333462 0.31866047 0.23793392 0.06414128
-0.7310736 -0.6533121 -0.5039553 -0.61977357 -0.37984404 -0.5658204 -0.38146776 -0.61054
-0.5924833 -0.44310588 -0.44151855 -0.38058123 -0.33861393 -0.31346753 -0.5290645 0.100002855
0.093076274 0.047545176 -0.0021547975 -0.23710683 0.26956183 0.23702632 -0.02428061 0.055800207
0.15915361 0.07440273 0.054382782 0.09062752 0.18956101 0.11371907 0.19496424 0.069463685
0.05204153 0.015966825 0.058642317 0.14232063 0.04687141 -0.03648097 0.07708682 0.09094491
0.099340215 0.15862992 0.22764915 0.14319032 0.01902103 0.1863136 0.15147114 -0.21751373
0.163241 -0.06635195 0.10519401 0.10538393 -0.3100041 0.019921511 0.063008256 -0.025012044
-0.14010076 -0.07603802 0.072024666 -0.029575437 -0.0023535162 -0.07106412 0.16215786 -0.14979422
0.04678676 -0.052324034 0.09562903 0.26900333 -0.26189902 -0.24016798 0.21244568 -0.019320352
-0.080969244 -0.043419708 0.17526698 -0.07079246 -0.086887166 0.07681177 0.19089554 -0.10709552
0.15179797 0.07213749 0.044038597 -0.23184566 0.5267959 0.26702616 -0.15867233 0.17778513
0.2472223 -0.047664564 -0.021682162 0.18568276 0.3621627 -0.025158094 -0.13085341 0.0007073213
-0.05455322 0.06763166 0.13087802 -0.12580185 0.17675607 0.14897233 0.021552155 -0.01144454
0.1394134 0.10954486 0.09072794 0.044661097 0.05916436 0.08272121 -0.0011928864 0.014265365
0.07402285 0.091342695 -0.030345758 -0.1412086 0.3595507 0.21113671 -0.020115642 0.1283717
0.10343285 -0.01899261 0.13437532 0.12096981 0.23135507 -0.07498709 -0.075320534 -0.016444143
0.037099164 -0.04859112 0.08875049 0.13192074 -0.24971767 -0.10385983 0.11514179 0.21001661
0.01629067 0.10454821 0.22071454 0.06350155 -0.024080697 0.21600425 0.16262661 -0.0040117586
0.030745406 -0.04145147 0.09857009 0.12254788 -0.25502196 -0.15634537 0.060244665 0.18058583
0.04546052 0.2190035 0.21791528 0.19091138 0.020140747 0.06738729 0.09480326 -0.17211851
-0.3311114 -0.15628006 -0.39022127 -0.45965445 -0.077565216 -0.35243875 -0.451948 -0.23991837
-0.37550855 -0.3668114 -0.4029319 0.03286773 -0.07749386 -0.37499735 -0.39721003 -0.06586683

layers.0.bias f4 [64]
00000000: e360 933d 61dc 223f 25bf 2d3e 4052 dc3e
00000010: 1300 0f3d 9bc0 353e a1bc 733e 8703 0ebc
00000020: ad7e a13e cd11 893e ec82 49bd c6eb 31bd
00000030: affb 203e a69f a63d 3b21 0c3f c2e7 443e
00000040: 81df a83e c4b8 4e3e 95c1 a73b d783 6f3e
00000050: 1a3d 343e 5ad8 4f3e c164 b93e 0d41 0a3e
00000060: aa87 4b3e 55ea c8bd 2d13 4dbd 9f62 763e
00000070: 147d a43e a618 083d bc91 66bc eef4 b5bd
00000080: 1c34 64ba 3b9e e83c 89a4 5a3d f9d9 06bd
00000090: 2293 c33d a768 5d3e 9248 463d a1a8 723c
000000a0: 9afb 0c3d 22cb a53e 0388 b63d 168d 2bbc
000000b0: e90d 443e ed3e 933d b77a 2e3e f5bb 9a3d
000000c0: 6a51 bcbd dc8c 1c3d 0aac e33d 0ad8 86bc
000000d0: 6632 063d 700e 9a3e 508b 053f f259 fc3e
000000e0: 5313 353d 4a0e 963d 5bcb a03e a1f3 003e
000000f0: 93ce 23bd ecb2 e03c 17b3 0d3e 3662 403e
0.07196214 0.6361752 0.16967447 0.43031502 0.03491218 0.17749254 0.23802425 -0.008667833
0.31541958 0.26771393 -0.049197122 -0.04343774 0.1572101 0.08135919 0.54738206 0.19229034
0.3298302 0.2018767 0.0051195123 0.23390137 0.17601433 0.20297375 0.36209682 0.13501377
0.1987597 -0.0981032 -0.050067116 0.24061058 0.32126677 0.03322663 -0.014072832 -0.08884607
-0.00087052747 0.028395763 0.05337957 -0.03292272 0.09549548 0.21621953 0.048409052 0.014810712
0.034419633 0.3238154 0.08912661 -0.010470649 0.19145931 0.071897365 0.17039 0.07555381
-0.09195216 0.03822027 0.11116798 -0.016460437 0.032762907 0.3008914 0.521657 0.49287373
0.044207882 0.07326944 0.31405148 0.12592937 -0.039991926 0.027429067 0.13837849 0.18787464

layers.1.weight f4 [5, 64]
00000000: 78d9 543e 9773 413e 6507 c73d aef4 93bd
00000010: 660d 013e 920c 393e fcaa 1abb a42d 15bd
00000020: 603b fcbd 83f2 bebe 25e4 573e daa6 cdbc
00000030: 6ca4 1ebe 9480 6cbd 59df 42bf 855a 23bc
00000040: cede c13d eeb6 6f3e ff2b 273d 658c 383e
00000050: 2bf3 87bc 4b2c 1b3e af40 953e a4cd 59be
00000060: 7eac 19be 1b42 d4bc 7224 f03d b5fa 6ebe
00000070: 9244 b1be ddbf debc 4024 b83e 2792 2c3d
00000080: d7aa 283e 9b39 e03d fcb5 6bbd f18b 513e
00000090: 1f37 29be e19c 933c ccf9 dfbd 82f8 f0bd
000000a0: b4f4 9ebd f9d3 e2be d693 b13d 529d f9bd
000000b0: 6e71 e73d d5c2 08bd ba41 92bd 2f6c 303e
000000c0: db00 dcbd 90ef e13d 2cc4 89bd ff16 a2bd
000000d0: facb 723d 3784 873e 9605 d03e b961 3d3d
000000e0: 4aba e5bd 6f7a dcbd 4259 b83e 8378 013e
000000f0: 420e 42be a227 84be 78f1 833d c6d7 cb3d
00000100: 434e a2bd b71f 87bf 4c0e 363e 5538 143e
00000110: e425 ecbc 8182 25be f2a1 8c3e f78e 19be
00000120: d2bb 88be a571 6dbe f5cc a5bd 09ab 833d
00000130: 160b d13c 8137 d0bd 3f97 573e 8ba5 0fbe
00000140: 062c 673d 9353 e0bd 9aa5 e73c 4abf 003e
00000150: 935c f13d 59de 4abe 8995 533e d075 3ebe
00000160: bc5e 253e e2d9 7d3d 1b86 493e b817 843e
00000170: b899 b3be d8fd 003d 8f8a e2bb 55cb fcbd
00000180: de3d bc3d ecd4 e33d caed 8cbd f75c 8f3d
00000190: 80e3 003e 7116 9bbd 1861 07bb 6ab8 d03d
000001a0: 9163 8bbd ea4a 313f 96ab 0ebe cdda 07be
000001b0: 0f82 1bbe bbfa d23c af73 563e fd27 313e
000001c0: a8b6 05be dd46 a1be fd26 92bd e001 9cbb
000001d0: 93db 783d 4d77 afbb 1a58 883e 13f9 3f3e
000001e0: 0d85 423e d002 5cbe 9a09 95bd 98e6 bdbd
000001f0: 5eaa 213e ceb2 cf3c 11bd d3bd 7191 1b3e
00000200: 2b49 e63d 31ea 953d b075 e4bd cb68 273e
00000210: 486b 713c df09 d5bd ec76 05be 736f a8bc
00000220: 5ca8 dd3e de12 f93e 7e78 83be ae9c 95bc
00000230: d78e 7b3d d132 ab3c 3ba7 0e3e 99bb af3d
00000240: 3412 a1be 473b 033e 9f31 09be bf45 44be
00000250: 7088 2c3e 94fc ecbd 65cf 14bf 93b6 b33d
00000260: b79a 8f3c f704 fbbc 4886 d4bd f085 033d
00000270: 4807 673d aaca 6c3e ec60 f8bd 1203 01bd
00000280: 7e92 a2bb 8516 66bd fa7f 163e 0a79 f13d
00000290: f8ee 14be 19f8 023e 94db 223d a2a5 dfbc
000002a0: 2654 993d 2fe2 85be 3200 773d 1e84 03be
000002b0: 260d c8bd 9435 493e 3e5f b33c 26a1 95be
000002c0: e355 36bd 25ba 943d abfe 8ebd df5b a7bd
000002d0: bae3 8c3e 0bc0 a23e 7aae 81be 7a34 36bf
000002e0: 270f a83e e3e4 6f3e bfba 76be 618c 383e
000002f0: 677d 63be 37e3 8e3d 9378 f7bd 0bcc 853c
00000300: 88ea a0bd e4c4 4e3e 1b8d 043b 1c98 e8be
00000310: e31f 5b3d 7cef 0a3e 0159 5abd 1c6e ccbb
00000320: ee8a e9be 9c21 9abe 6de5 81bb 4919 023b
00000330: 86fa 683d 5060 063d df77 143e 065f e73b
00000340: 1f0b 5a3d 4710 59be 206d 23bc 16df 5a3d
00000350: 51b8 82be 72a6 c73d 2ba9 553a 5fe8 443e
00000360: 333f d83d affd 41be ce8b f2bd 366f d1be
00000370: 6e78 e43e 9f87 abbd 1833 1cbe af5c 523c
00000380: 6cc7 723d abea 5bbd 9d75 b23d 9b07 3abe
00000390: 3a51 cb3c 2334 9f3d 2a2c 15bd 11ce 07bd
000003a0: 7b15 103e cf43 d6be 8d8c 80bd 84ce 7b3e
000003b0: 369a f43d fe47 093e 2b64 1ebe 95a5 f73c
000003c0: 26c5 43bd 0c11 93bd 3d2a e83a 50d2 f6bb
000003d0: 238a 9bbe 5060 ecbe f833 d3be 0b3e 8d3e
000003e0: 272e 41be 036d e53d 74af 93be 446d 92bd
000003f0: 4ea5 213e 7b65 343e 02f4 5e3e 71e0 c2bd
0.20786083 0.1889175 0.09718207 -0.07224403 0.12602767 0.18071201 -0.002360045 -0.03642048
-0.123160124 -0.37294397 0.21083124 -0.025103975 -0.1549241 -0.05773981 -0.7612205 -0.009970312
0.09466325 0.23409626 0.040813442 0.18022306 -0.016595444 0.15153615 0.29150912 -0.21269852
-0.15007207 -0.025910428 0.117257014 -0.23337825 -0.34622627 -0.027191097 0.35965157 0.04213157
0.1647142 0.10948487 -0.0575466 0.2046354 -0.16524933 0.018019142 -0.10936317 -0.11766149
-0.07761517 -0.44302347 0.086707756 -0.121882096 0.11300932 -0.03338893 -0.071414426 0.17228769
-0.10742351 0.11032021 -0.0672687 -0.079145424 0.05927656 0.2646806 0.40629262 0.046235774
-0.112171724 -0.1076554 0.36005598 0.12643628 -0.18950751 -0.25811487 0.06442541 0.09953265
-0.079250835 -1.0556554 0.17778891 0.14474614 -0.028826661 -0.16163065 0.27467304 -0.14995943
-0.26705796 -0.23187883 -0.08095733 0.06429107 0.025517981 -0.101668365 0.2105379 -0.14027993
0.05643847 -0.109534405 0.028277207 0.12572971 0.11785235 -0.19811381 0.20662512 -0.1859963
0.1614942 0.061975367 0.19680063 0.25799346 -0.35078216 0.031492084 -0.00691349 -0.1234347
0.09191488 0.11124596 -0.06881292 0.070001535 0.12586784 -0.0757264 -0.0020657238 0.10191424
-0.068061 0.69254935 -0.13932642 -0.1326706 -0.15186332 0.025754323 0.20942567 0.1730041
-0.13057959 -0.31499377 -0.07136343 -0.0047609657 0.060756277 -0.005354798 0.26629716 0.18747358
0.18996067 -0.21485448 -0.07277222 -0.09272498 0.15787646 0.025353815 -0.10338796 0.151922
0.112444244 0.07320059 -0.111552596 0.16348569 0.0147350505 -0.104022734 -0.13033646 -0.020560956
0.4329251 0.48647207 -0.25677866 -0.018263187 0.06141552 0.020898255 0.13930981 0.08580703
-0.314592 0.12815581 -0.13397835 -0.19167231 0.16848922 -0.11571613 -0.5812896 0.08775058
0.017529828 -0.030642016 -0.103771746 0.032110155 0.05640343 0.23124185 -0.121278614 -0.03149707
-0.004961311 -0.05617382 0.14697257 0.117906645 -0.14544284 0.12789954 0.039760187 -0.02730066
0.07486753 -0.26149127 0.06030292 -0.12843367 -0.09768133 0.19649345 0.021896001 -0.2922451
-0.0445155 0.07262067 -0.06982168 -0.0817182 0.27517492 0.31787142 -0.25328428 -0.7117382
0.3282406 0.23427157 -0.24094675 0.180223 -0.22215806 0.069769315 -0.120835446 0.016332647
-0.07857233 0.20192295 0.0020225707 -0.4542855 0.053497206 0.13567919 -0.053307537 -0.006238712
-0.45613807 -0.30103767 -0.0039641173 0.0019851497 0.056879543 0.032806695 0.14498852 0.007060888
0.053233262 -0.21197616 -0.009974748 0.053435408 -0.25531247 0.09748544 0.0008150513 0.19229268
0.10558929 -0.18944429 -0.11843072 -0.4090516 0.4462313 -0.08375477 -0.15253866 0.01283948
0.059272215 -0.053690594 0.08713839 -0.18166964 0.024819005 0.07773616 -0.03641907 -0.033155505
0.14070694 -0.4184861 -0.06276808 0.24590498 0.11943476 0.13406369 -0.15467899 0.030230323
-0.047795437 -0.07180986 0.0017712783 -0.0075323954 -0.30378827 -0.4616723 -0.41250587 0.27586398
-0.18865262 0.11202433 -0.28844798 -0.07149747 0.15785715 0.17616837 0.21772769 -0.09515465

layers.1.bias f4 [5]
00000000: d84a 2f3c 4af5 bcbd 36c1 253e d9da 183e
00000010: 1c29 37be
0.0106989965 -0.09226473 0.16186985 0.14927234 -0.17886776
