src/bread/algo/lineage/saved_models/best_model_with_fake_candid_thresh12_frame_num8_normalized_True.pth (torch, 19167 bytes, 4 tensors)

layers.0.weight f4 [64, 64]
00000000: d030 47be 7eef 80be aa87 3b3d 4588 663e
00000010: d7ba a6be b960 ebbd e818 bc3c 4f8b 003d
00000020: 6530 b1bc e03b 703d fefc a03e 12e2 bf3e
00000030: 6438 583d aef6 bd3e 409a 533e 5e3a 143d
00000040: 6140 9f3e 655a 173e 0761 ffbd ffaf bbbd
00000050: 7d71 7b3e 5256 0a3e 81c7 12be 8124 123d
00000060: 9f8e c7bb 4507 a7bc a5cc c9bb 8a3e 3abd
00000070: 734c 703e 1012 9abe 2351 4d3e ee27 9fbd
00000080: 6cc9 9c3e 8a9b 733d 98c4 03be aa59 7dbd
00000090: 51d3 563e b1a8 233e 15f8 aabd 5db2 a4bd
000000a0: d8c6 0f3d 2b79 3fbc 1109 dc3c 2272 47bd
000000b0: c04a 443e 7cb1 7abe 52a4 0d3e ba15 d53b
000000c0: 905f 17be b28b f2be da4f 9ebe 07fb 69be
000000d0: 4dc9 d1be 57df 23bc 0113 003e f06b 373d
000000e0: 6146 eabc 1207 2dbe cce2 d0bd 6174 91be
000000f0: d163 8fbe cb47 95be 840c 84bd a742 12be
00000100: cf82 a2bc 807c abbd 1219 393d 1fce 07be
00000110: bcd9 07be a92d 09be a409 563d bdb7 96bc
00000120: 1079 793d 8270 26be d670 3bbe 74ec 1fbe
00000130: 30ad 11be fe22 11bc 1058 7abc 04e0 393d
00000140: 9ede 27be 5082 3dbe aaae 09bd b4b1 19be
00000150: 6deb ccbc 9b01 fbbd 9db1 84bc 6ec4 40be
00000160: 0716 1cbe af5a 80bd 970a 98bd 622e 07be
00000170: ef48 d9bc 026b 83bc 7e3b 40be 1d84 2bbe
00000180: e831 783d 93f0 bebd 0741 aebd efa9 27be
00000190: 3c9c dcbd dda9 743c 171c 68ba afa9 fabd
000001a0: b404 2c3c 5e18 07be 059a 1dbe 5229 f9bd
000001b0: cf78 29be 7e67 03be 4e65 983d a749 afbc
000001c0: ea83 9cbc 8349 32be 1110 0fbe 8031 cbbd
000001d0: 1beb 1bbd 8fa1 2bbe 6a3c e4bd 3fa1 07be
000001e0: 048c 6abd 8e3f d5bd 7abf 87bd acb9 11be
000001f0: b4dc 12be f5ac 05be 8fa0 cdbd 0d09 20be
00000200: 5767 173e 3ba8 863b 0b75 cf3d ef2f bf3c
00000210: ac39 b7bc 8e01 0a3e 762e 263c 20e6 8c3a
00000220: fe68 9abd af1e babd 30a5 683d c4e2 1bbd
00000230: c0aa a23d dbb4 b4bd 2587 ac3d ad3f b1bd
00000240: 96ac 98be e5d3 96be 139d 403e 62c1 813e
00000250: 1340 79be 41e7 7abe fec3 173e 2414 c1bc
00000260: e9f7 f8bd bf74 323d ad39 4a3e aa58 b0bd
00000270: 5e69 06be e85d 7b3e b382 fc3d 7be9 e83c
00000280: 4980 053f d388 b93e 463a 96bd 436d 7dbe
00000290: ece7 063f df9b 3d3e 5bda 53be 9748 d33d
000002a0: 7d79 383e f31a 85bc de83 f0bc 274e 17bb
000002b0: 0225 c23e 8888 42be 39e9 3c3c 9ce3 cbbd
000002c0: 8d41 81be a538 84bd 5a0b fe3d ce52 93bd
000002d0: f22b 1bbe b68d df3b 93c4 973d e3ec c2bc
000002e0: 807b c73c 1c83 c03d ba24 b538 c8b2 d2bd
000002f0: f3ad 5ebe 41a1 0e3d 3903 9bbc 8d69 52bd
00000300: 0cc6 dabd 54f4 3abc a9d8 9fbe a4b7 a4be
00000310: cf85 89be 31e2 aabe 445c 98be e1ac a6be
00000320: b2b6 d7be 8623 39be 40c0 25be 9e62 a0be
00000330: 2fec c2be fc6d d7be a88e 07be 441d d8be
00000340: 48ec 9e3d bf14 f5bc 1bb5 8f3e d6a7 7b3e
00000350: 4254 81be ab47 0ebe c842 a43c 601d 6d3d
00000360: 3a6a 27bc b962 8f3e 2ca3 a83e b854 073e
00000370: 0c38 b53c 8949 ae3e c608 a13e 13b0 813e
00000380: 1056 193d c385 aebc 35c3 a03e 713d 803e
00000390: 6a5e 80be b58b 2ebe e588 863c a64a a43d
000003a0: d986 8f3d 96e7 cd3e e1d1 a53e ba52 453e
000003b0: 7a3b 183e 2067 e53d c9d3 623e 124e 2f3e
000003c0: c57c 04be 83f2 52be 139f 99be 44ea b0be
000003d0: 6ee4 60be cb50 d3be 8212 e6be 4d6a a5be
000003e0: 3516 bebe e416 5dbd b8dd 86be 44a3 d8be
000003f0: 0883 b6be e214 c8be b9c8 07be e41d d6be
-0.19452214 -0.25182718 0.045783676 0.2251292 -0.32564422 -0.11493058 0.022961095 0.031382855
-0.021629522 0.05865085 0.31443018 0.37477165 0.052788153 0.37102264 0.2066431 0.036188476
0.31103805 0.14780577 -0.12469678 -0.09164428 0.24555011 0.13509491 -0.14333917 0.035679344
-0.00609 -0.020389209 -0.0061584287 -0.0454698 0.23466663 -0.30091906 0.20050482 -0.07771288
0.30622423 0.059474505 -0.12867963 -0.06185309 0.20979048 0.1598232 -0.08348099 -0.080418326
0.03510174 -0.011686604 0.026859792 -0.04869283 0.1916914 -0.24481767 0.13832214 0.006502834
-0.14782548 -0.47372204 -0.30920297 -0.22849666 -0.40973893 -0.010001979 0.1250725 0.04478067
-0.028598012 -0.16897228 -0.10199508 -0.28409103 -0.2800584 -0.29156336 -0.064477 -0.14283238
-0.019837765 -0.08373356 0.045189925 -0.13262223 -0.13266653 -0.13396324 0.052255288 -0.01839816
0.06090647 -0.16253856 -0.18304762 -0.15617543 -0.14226222 -0.00885844 -0.015279785 0.045379654
-0.16393515 -0.18506742 -0.03361384 -0.15009195 -0.025014604 -0.122561656 -0.016197974 -0.18824932
-0.15242778 -0.062672965 -0.07423895 -0.13201287 -0.026524035 -0.016042236 -0.18772694 -0.16749616
0.06059447 -0.0932323 -0.08508497 -0.16373418 -0.10771987 0.014933077 -0.00088542834 -0.12239396
0.010499168 -0.13192889 -0.15390785 -0.12166084 -0.16549991 -0.12832448 0.07441197 -0.021397425
-0.01910587 -0.17410855 -0.13970973 -0.09921551 -0.03806601 -0.16760848 -0.111443356 -0.13245104
-0.057262436 -0.10412513 -0.06628318 -0.14230984 -0.14342004 -0.13054259 -0.1004039 -0.15628453
0.14785515 0.00410941 0.10129746 0.023338286 -0.022366367 0.13477156 0.010142913 0.0010749735
-0.07539557 -0.09087884 0.05679816 -0.038058057 0.07942724 -0.08823558 0.08424214 -0.08654723
-0.29819173 -0.29458538 0.18809919 0.25342852 -0.24340849 -0.24502279 0.14820859 -0.023569174
-0.1215666 0.04356837 0.19748564 -0.08610661 -0.13126132 0.24547541 0.123296164 0.028431645
0.5214887 0.362372 -0.073353335 -0.24748711 0.52697635 0.18516491 -0.20688765 0.1031658
0.18015094 -0.016248202 -0.029359754 -0.0023087354 0.3791886 -0.18997395 0.011530214 -0.099555224
-0.25245324 -0.064561166 0.12404509 -0.07193528 -0.15153483 0.006822313 0.074105404 -0.023794597
0.024350882 0.09400007 8.6375934e-05 -0.10288006 -0.21746044 0.034821752 -0.018922435 -0.051370192
-0.10682306 -0.011410791 -0.31219986 -0.32171357 -0.268599 -0.33375695 -0.29757893 -0.3255377
-0.42131573 -0.18079957 -0.16186619 -0.3132524 -0.3807082 -0.420761 -0.13238013 -0.42209828
0.07759911 -0.02991712 0.2806786 0.24575743 -0.25259596 -0.13894527 0.020051375 0.057889342
-0.0102181975 0.28005007 0.3293699 0.13215911 0.022121452 0.34040478 0.31452006 0.25329646
0.03743559 -0.021304017 0.3139893 0.25046876 -0.25072032 -0.17045482 0.016422698 0.080220506
0.07008142 0.4021575 0.32386687 0.19269839 0.14866439 0.1120131 0.22151102 0.17119625
-0.12938221 -0.20600323 -0.30004176 -0.3455373 -0.21962139 -0.41272578 -0.44935995 -0.32307664
-0.37126318 -0.05397691 -0.26341033 -0.42312062 -0.35646844 -0.39078432 -0.13260163 -0.4181968

layers.0.bias f4 [64]
00000000: 7fbd ac3d 090c d33a 0e8b 4a3e 5695 033f
00000010: dc9a 4c3d 8346 f03e 800e 85bd 8190 b03d
00000020: b2f3 823e f6ec 9e3e 0b64 3f3e 0c62 35be
00000030: ee13 2a3e a442 0dbe fed1 773d 382e cb3e
00000040: 8943 d9bd ac2a 1e3e 401e 45be 318e ae3e
00000050: f7bc 05bd e8b1 c13e 6df5 2c3e cbfb 0d3e
00000060: 0e6c 513e 2e31 3fbd 7736 48be c895 113e
00000070: 6e38 ee3c 7ce6 86be 02c8 15be f061 e0bd
00000080: 7c1c 86be 2aab 32bd 180e c33e 3345 db3e
00000090: 5a56 da3c 4c89 fa3e 4c3f 81be aa50 953c
000000a0: ba99 34be b263 8e3e c8f6 31be cd10 23be
000000b0: 336f aa3e 8769 63be af97 aebb 8d3a 0dbd
000000c0: 0730 e53e 875b e73e 511b 993d 4050 df3e
000000d0: 0ebb 0ebe fe6f 5e3e df31 093e 6644 e73d
000000e0: 5771 39be 12e9 b4bd 2485 a03e 54bb 14bd
000000f0: 0672 84be d070 343d f7fc d93d e386 223e
0.08434581 0.0016101609 0.19779608 0.51399744 0.049952373 0.46928796 -0.06496906 0.08621312
0.2557655 0.31040162 0.18690507 -0.17713183 0.16609165 -0.13794953 0.060503 0.396837
-0.106085844 0.15445966 -0.1924982 0.34092858 -0.032650914 0.37831044 0.16890498 0.13865583
0.20451376 -0.04667776 -0.19552027 0.14217293 0.029079642 -0.2634772 -0.14627078 -0.1095618
-0.26193607 -0.043620266 0.3809669 0.42826232 0.026652504 0.48932874 -0.25243604 0.01822694
-0.17636767 0.27810436 -0.17379296 -0.15924378 0.33287963 -0.22208224 -0.0053281407 -0.034479667
0.44763204 0.45187017 0.07475913 0.43615913 -0.13938543 0.21722409 0.1339793 0.11292343
-0.18109642 -0.08833517 0.31351578 -0.036311463 -0.25868243 0.0440529 0.10643952 0.15871768

layers.1.weight f4 [4, 64]
00000000: d72d d73e 83d3 0e3c ff9b b8bc 489d fabe
00000010: 0ac2 ae3e d536 b3be 911f 373e 0289 263e
00000020: 5356 61bd a48d 0ebf 9d26 c93e 9f02 d2be
00000030: 48a4 9dbe 88ee 5dbc 6bf3 e4be 3222 de3e
00000040: d5a7 c5be 6bbd c93e 1d9f 37be 1c17 c43d
00000050: 80e5 e9bd dd41 053f 4b84 c33e 457e 8bbe
00000060: 2598 b6be 6c2c 283e 6b21 b23c 9bb3 9abe
00000070: 0692 833e 7c03 05be 0bdf 9f3e 33ca bb3c
00000080: 1fff 0d3f dce0 7b3e f79d dcbe 3585 c1be
00000090: bbf6 e1be 9351 cdbe b037 2cbe 6e2e 55be
000000a0: 25b2 83be 33b4 f23e 9316 7fbe 3e5f 1cbe
000000b0: 4769 ccbe c902 b8bd e896 d1be 245d 963e
000000c0: 83a9 20bf 772b 07bf 0f71 843d 26bc 15bf
000000d0: 0dc3 95bd 9ce2 0c3f 0790 af3e 1e74 a0be
000000e0: d8b2 b93e 4952 c3be fb7f ed3e 9219 583e
000000f0: 3746 abbe b3b1 c1be ceb6 353e eec1 19bb
00000100: 6ee2 eebe 83d1 00bc aaa1 a13e 4ee5 d63e
00000110: 98ef f7be d708 06bf 621c e23d bfb8 b0be
00000120: 119d 65be c9f4 f4be a7f1 3bbe 4e12 a43e
00000130: 85a2 07bc 055f 02bd 46a3 08bd fb9a e7be
00000140: 267e e63e 2fc4 c5be 9bb6 d0be 1a69 003f
00000150: 38a3 2d3e 3f9e fdbe 921d d23e 5902 66be
00000160: 2ef6 a43e 1bd0 633d 60c9 593c 79ce 153e
00000170: 6a9f 03be b6ef 92be 4b36 cabe ad54 12be
00000180: c581 22be e794 423e 8d00 e4be 15f3 203f
00000190: 288c ec3e 4d6f fbbe 6e9d d9be a5e9 943e
000001a0: a807 d1be 3d1b 85be c4db 98be f5ae 86bd
000001b0: 9ae2 d2be db2c bfbe a032 fc3e d7d8 373e
000001c0: 2376 ec3e 11fc 02bf 5d32 993d 9946 98be
000001d0: ea0d 7d3d 3fe5 96be 521c ca3d a784 d23e
000001e0: 2a92 99bd 83a2 e0be 1389 c2be 77ec 9ebe
000001f0: c11f 8f3e 5926 843d 3571 26be 64d5 a13e
00000200: 84fa dabe 44c3 f5bc 9bbb c9be 4848 c23e
00000210: b270 b1be 9f30 04bf 42c9 0bbc de26 01bd
00000220: f3ea fd3e f024 083f 5f03 d5be ae95 86be
00000230: 4a67 d33e f809 88bd 7142 163e e1c7 b0be
00000240: 80f9 28be 1fba b63d a573 d13e ed88 c1be
00000250: e012 c33e 67fa f4be 4426 c9be b662 6c3e
00000260: 731f 733d 1985 213e 3b6f 8f3a 1b7a 943e
00000270: d31d e5be 51a6 8f3e e2d1 09be 3389 47bc
00000280: 9a19 46be c898 febd 0fe6 123f 33ae d1be
00000290: 66f0 efbe aaa0 f63e 62f0 c63e b57a ac3d
000002a0: 9af5 053e cb6e 99be 7265 ef3e e524 4fbd
000002b0: 6a13 acbe bd56 0fbe 9f07 1abe 7017 adbe
000002c0: bdbf 19bf ef37 22bf e00e afbe 2807 e63e
000002d0: 91a4 fabb 2882 a6be 2dba 4e3c dabc d2be
000002e0: ec04 843e 648b 3e3e 4132 d3be 03ae 2a3e
000002f0: 5203 d9be f465 373e 8155 a2be e1a7 fbbd
00000300: 8f21 b33e 2e3e f6bc 0558 593e bd14 03bf
00000310: 86cc cb3e bb69 193f e37c 6bbe 65d5 cfbd
00000320: 3c2e 01bf e61e e4be 71a1 a1be 9510 7f3e
00000330: 74ca 8fbe 8a10 e7bc ff15 c63e f67a abbe
00000340: 5e05 8cbe 17ab e5be 2459 68be b8e2 c2be
00000350: b168 f2be 8f6b 9fbe 0a08 dabe 07b7 493e
00000360: 2b7f 59bc 24f9 cfbe 865c ffbc 874b 9dbe
00000370: cd44 933e 81a6 813e cbb7 f63d 76f8 abbb
00000380: ce7b 95be e3c4 9bbe 8357 c3be 4806 0bbf
00000390: edab 6a3d 1cbf f83e d2ec 20be 8ef6 a0be
000003a0: f7b0 073f 1baa f5be e9ea 68be ce73 b3bc
000003b0: 5699 153f bd77 253f 21b2 32be b824 edbd
000003c0: 21ba 11bf 3928 063f 37f8 14be bd14 bfbe
000003d0: 0ff0 c6bc dfe5 94be b520 32be f335 d93e
000003e0: 1986 b7be 057f 063f f4e4 02bf 1dce 8b3a
000003f0: 5201 cc3e e81f 563e dd52 ab3e 4dd7 71be
0.4202716 0.0087174205 -0.022535322 -0.4894812 0.34132415 -0.3500277 0.17883135 0.16263202
-0.055013966 -0.55684876 0.39287272 -0.41017625 -0.307894 -0.01354564 -0.44716963 0.43385464
-0.38604608 0.39402327 -0.1793179 0.0957472 -0.11420727 0.52053624 0.3818687 -0.27244774
-0.35662952 0.16423196 0.02174445 -0.30215153 0.25697345 -0.1298961 0.31224856 0.022923565
0.5546741 0.24597496 -0.43089268 -0.3779694 -0.44133553 -0.401013 -0.16818118 -0.20818493
-0.2572185 0.47403106 -0.24910955 -0.15270707 -0.3992407 -0.08984906 -0.40935445 0.29367936
-0.62758654 -0.528007 0.06466877 -0.58490217 -0.073125936 0.5503328 0.34289572 -0.3133859
0.3626926 -0.38148716 0.46386704 0.21103504 -0.33452007 -0.37830886 0.17745516 -0.0023461538
-0.46657127 -0.0078624515 0.31568652 0.4197182 -0.48424983 -0.5235724 0.1104057 -0.3451595
-0.22423197 -0.47843006 -0.18353902 0.32045215 -0.008278494 -0.0318289 -0.033358835 -0.45235428
0.4501812 -0.3862624 -0.40764317 0.5016037 0.16956794 -0.49534795 0.41038185 -0.22461833
0.3221907 0.055618387 0.01329264 0.14629544 -0.1285378 -0.2869851 -0.39494547 -0.14290114
-0.15869816 0.19002114 -0.4453167 0.62870914 0.4620068 -0.49108353 -0.42502922 0.29084507
-0.40826154 -0.25997344 -0.29855168 -0.06576339 -0.41188508 -0.3733891 0.49257374 0.17953812
0.4618388 -0.5116587 0.07480309 -0.29741362 0.061780848 -0.29471776 0.09868683 0.4111683
-0.07498582 -0.43873987 -0.37995204 -0.31039783 0.27953914 0.06452627 -0.16254123 0.31608117
-0.42769253 -0.030000336 -0.39400944 0.3794577 -0.34656292 -0.5163669 -0.00853187 -0.031531207
0.49593315 0.5318136 -0.41604134 -0.26286072 0.4128974 -0.066425264 0.14673783 -0.34527496
-0.16501427 0.089222185 0.40908542 -0.3779978 0.38100338 -0.47847292 -0.39287007 0.2308453
0.059356164 0.15773429 0.0010943183 0.2899941 -0.44749317 0.28056577 -0.1345897 -0.012178707
-0.19345704 -0.124314845 0.5738229 -0.40953216 -0.46863097 0.48169452 0.38855273 0.08421842
0.13081971 -0.2996734 0.46757084 -0.050572295 -0.33608562 -0.13997932 -0.1504197 -0.33806944
-0.60058194 -0.633666 -0.34191036 0.44927335 -0.0076490124 -0.32521176 0.01261763 -0.41159707
0.25785005 0.18607861 -0.41249278 0.16667943 -0.42385346 0.17909986 -0.3170586 -0.1228788
0.3498654 -0.030058946 0.21224983 -0.5120352 0.39804476 0.59926957 -0.22996859 -0.10148124
-0.50461173 -0.44554824 -0.31568483 0.2490867 -0.28084147 -0.028206129 0.38688657 -0.3349225
-0.27347845 -0.44857094 -0.22690254 -0.38063598 -0.47345498 -0.31136748 -0.42584258 0.19698726
-0.013274948 -0.40619767 -0.031172048 -0.30721685 0.28763428 0.25322345 0.120467745 -0.0052481247
-0.29196018 -0.3042365 -0.38152704 -0.5430646 0.057292867 0.48583305 -0.1571534 -0.31438106
0.530044 -0.47981343 -0.22745861 -0.021905806 0.584371 0.6463583 -0.17450763 -0.11579269
-0.56924635 0.52405125 -0.14547811 -0.3732051 -0.02428439 -0.29081628 -0.17395289 0.42423972
-0.35844496 0.52537566 -0.51130605 0.0010666285 0.39844757 0.20910609 0.33461657 -0.23617287

layers.1.bias f4 [4]
00000000: 5cff 2f3d 5fd3 bebd da43 d2bc f806 453b
0.04296814 -0.093176596 -0.02566712 0.0030063968
