src/bread/algo/lineage/saved_models/best_model_with_fake_candid_thresh12_frame_num8_normalized_False_with_tracking_errors.pth (torch, 19423 bytes, 4 tensors)

layers.0.weight f4 [64, 64]
0.029276373 0.00811896 -0.027236199 0.19633685 -0.34170616 -0.13884139 -0.010910287 -0.03956493
-0.029464832 -0.077946424 0.17080343 0.14377981 -0.019603975 0.2076086 0.21845607 -0.28186747
0.15989795 0.018849067 -0.12394117 -0.07616609 0.15941866 0.15562384 -0.0013315728 0.18353866
-0.0042215935 -0.07630889 -0.008369714 0.019395007 0.22748321 -0.26416388 0.052296463 0.24909814
-0.0049566156 -0.07318101 -0.09651633 0.0084962305 -0.04947858 0.067821935 0.024171222 -0.043093946
0.024383178 -0.11969838 0.0009671111 0.106913365 0.07587098 -0.13618489 0.038922034 0.09958741
-0.0008251523 -0.16564944 -0.18407302 -0.12000536 -0.16806173 0.11045363 0.09553727 0.05413832
0.047795326 -0.08728517 0.055417486 -0.06976098 0.0313541 -0.16602314 0.034106027 0.07058136
-0.021114668 -0.0846266 0.026330816 -0.15161806 -0.13766149 -0.1429575 0.03999067 -0.032188766
0.05329763 -0.17011395 -0.19398373 -0.041573957 -0.14899682 0.04502113 -0.025184713 0.06586664
-0.12892519 -0.1476781 0.0032802864 -0.113597386 0.010596705 -0.09193328 0.011272835 -0.1613028
-0.1242814 -0.021552233 -0.03736612 -0.10396983 0.0050527523 0.02060222 -0.14938217 -0.008233742
0.056829747 -0.09980615 -0.101941675 -0.1785764 -0.12916817 -0.02639972 -0.074123845 -0.14835903
-0.05469373 -0.14300959 -0.1636765 -0.12645227 -0.16702798 -0.13721557 0.067325264 -0.034005012
-0.019108044 -0.17421289 -0.13972324 -0.099233836 -0.038064614 -0.16761678 -0.11148525 -0.13245986
-0.057280127 -0.104137555 -0.06628904 -0.14232484 -0.14342603 -0.13054973 -0.10041315 -0.15627311
0.09156482 -0.038000308 0.105310254 0.057156615 -0.16895916 0.065435514 0.003192954 -0.025339479
-0.12761852 -0.09780187 0.056519683 -0.025696615 0.025772823 -0.053884488 0.13647965 -0.18339808
-0.08371503 -0.079421476 0.054686453 0.17179465 -0.23905538 -0.2890613 0.1262573 -0.08077385
-0.16404939 -0.12354127 0.07263114 -0.1942398 -0.16290782 0.08527674 0.15690286 -0.283444
0.20599514 0.09195835 0.035195723 -0.1876863 0.51771176 0.23646621 -0.14877026 0.17677191
0.24588412 -0.0077155144 0.006596131 0.12868989 0.36860844 -0.09264184 -0.18687771 0.1886973
-0.08630547 0.032721378 0.12748931 -0.087696604 0.020414568 0.061845273 0.029734462 -0.046191126
0.0662037 0.11790808 0.08519245 -0.007729189 -0.0386981 0.0873906 0.035716347 -0.20418958
0.15275389 0.12355003 -0.031383265 -0.118336685 0.3111369 0.1618184 -0.020693943 0.07417918
0.029193345 -0.004126883 0.14420873 0.13370189 0.21104121 -0.1168841 -0.14682947 0.1716696
-0.033427857 -0.018356035 0.067139365 0.07985056 -0.32191974 -0.15812828 0.032247655 0.09561405
-0.043055985 -0.032850772 0.055093456 -0.05458156 -0.17820549 0.13074593 0.052655686 -0.3267505
-0.15848492 0.00081349385 0.06781515 0.09330922 -0.44397175 -0.30451164 -0.013473433 0.034927387
-0.09031263 0.11417422 0.06706019 -0.034448918 -0.22477806 -0.003719183 0.073506474 -0.44046247
0.1222858 0.0004283921 -0.020423558 -0.1049054 0.164847 0.044208195 -0.066181324 0.10881604
0.07440481 0.107059635 0.025049709 0.060654707 0.16853464 -0.06518223 -0.057185456 0.29050133
00000000: 01d5 ef3c 6305 053c 731e dfbc 870c 493e
00000010: 1cf4 aebe 702c 0ebe 0fc1 32bc d60e 22bd
00000020: 3b60 f1bc 60a2 9fbd 18e7 2e3e 043b 133e
00000030: 8498 a0bc 5997 543e f3b2 5f3e ef50 90be
00000040: 4abc 233e 5c69 9a3c ded4 fdbd f8fc 9bbd
00000050: a53e 233e db5b 1f3e 2b88 aeba 8ff1 3b3e
00000060: 4b55 8abb d647 9cbd 2021 09bc 47e2 9e3c
00000070: 5cf1 683e 7d40 87be d134 563d 9513 7f3e
00000080: 1b6b a2bb eddf 95bd 5baa c5bd c633 0b3c
00000090: 0daa 4abd 3ae6 8a3d ba02 c63c 4783 30bd
000000a0: 3bbf c73c 6d24 f5bd ba85 7d3a 65f5 da3d
000000b0: 3f62 9b3d 0d74 0bbe b66c 1f3d 7cf4 cb3d
000000c0: 094f 58ba 02a0 29be a37d 3cbe 5fc5 f5bd
000000d0: 6018 2cbe 8335 e23d 0ba9 c33d 25c0 5d3d
000000e0: 08c5 433d 91c2 b2bd 72fd 623d d8de 8ebd
000000f0: 286d 003d f801 2abe c3b2 0b3d f68c 903d
00000100: abf8 acbc b650 adbd b9b3 d73c c441 1bbe
00000110: 22f7 0cbe 7363 12be 42cd 233d 5ed8 03bd
00000120: 9e4e 5a3d 5a32 2ebe aca3 46be 7449 2abd
00000130: 9f92 18be 1468 383d 2c50 cebc 17e5 863d
00000140: f704 04be ee38 17be 13fa 563b bfa5 e8bd
00000150: cd9d 2d3c 8447 bcbd b2b1 383c 902c 25be
00000160: 3f87 febd 4f8e b0bc 370d 19bd 22ee d4bd
00000170: 8f91 a53b fdc5 a83c a4f7 18be d1e6 06bc
00000180: 4fc6 683d 2b67 ccbd ccc6 d0bd bbdc 36be
00000190: a944 04be 3a44 d8bc 3ece 97bd 6eeb 17be
000001a0: 8806 60bd 1b71 12be d09a 27be b47c 01be
000001b0: 6209 2bbe 3d82 0cbe d4e1 893d d748 0bbd
000001c0: 7988 9cbc dd64 32be 9c13 0fbe 1c3b cbbd
000001d0: a4e9 1bbd bca3 2bbe 6152 e4bd 8fa3 07be
000001e0: 919e 6abd 1246 d5bd 8cc2 87bd 9abd 11be
000001f0: 46de 12be d4ae 05be 69a5 cdbd 0f06 20be
00000200: 5686 bb3d 36a6 1bbd e7ac d73d 0e1d 6a3d
00000210: a103 2dbe 0e03 863d e140 513b bd94 cfbc
00000220: 6eae 02be 594c c8bd 2f81 673d b581 d2bc
00000230: 8721 d33c fbb5 5cbd 52c1 0b3e b5cc 3bbe
00000240: c972 abbd baa7 a2bd e7fe 5f3d f0ea 2f3e
00000250: efca 74be d8ff 93be 9849 013e c36c a5bd
00000260: 90fc 27be 3503 fdbd a3bf 943d cce6 46be
00000270: 4fd1 26be 92a5 ae3d 25ab 203e 921f 91be
00000280: 64f0 523e a954 bc3d 6429 103d d630 40be
00000290: c288 043f 3324 723e 3b57 18be b203 353e
000002a0: 0cc9 7b3e 6dd2 fcbb 5b24 d83b 48c7 033e
000002b0: 3fba bc3e 01bb bdbd df5c 3fbe dd39 413e
000002c0: ecc0 b0bd da06 063d 8f8c 023e 479a b3bd
000002d0: 743c a73c 7851 7d3d b095 f33c e832 3dbd
000002e0: ce95 873d cb79 f13d 6179 ae3d 2345 fdbb
000002f0: e681 1ebd d8f9 b23d 4e4b 123d 1317 51be
00000300: 846b 1c3e cc07 fd3d bd8b 00bd 815a f2bd
00000310: 564d 9f3e b9b3 253e 5886 a9bc 41eb 973d
00000320: e226 ef3c ce3a 87bb 74ab 133e 26e9 083e
00000330: 301b 583e ee60 efbd 775a 16be 28ca 2f3e
00000340: a6eb 08bd 655f 96bc 5d80 893d b188 a33d
00000350: aad2 a4be 61ec 21be 1e16 043d 4dd1 c33d
00000360: 795b 30bd 888e 06bd ada9 613d ea90 5fbd
00000370: 807b 36be 43e2 053e 7dad 573d d74b a7be
00000380: df49 22be a640 553a abe2 8a3d e818 bf3d
00000390: 4450 e3be f3e8 9bbe adbf 5cbc 0510 0f3d
000003a0: d4f5 b8bd 2cd4 e93d da56 893d 4f1a 0dbd
000003b0: 382c 66be 89bd 73bb 908a 963d 4c84 e1be
000003c0: fa70 fa3d d099 e039 4e4f a7bc a4d8 d6bd
000003d0: a7cd 283e a713 353d 138a 87bd f2da de3d
000003e0: 8d61 983d 1542 db3d 0c35 cd3c 1271 783d
000003f0: 5894 2c3e 437e 85bd 4c3b 6abd 97bc 943e

layers.0.bias f4 [64]
0.03198638 0.03510594 0.11780257 0.13321812 0.052020427 0.1458884 0.07267605 -0.011405153
-0.045708027 0.4855288 -0.10758604 -0.11998145 -0.0039750068 0.06790319 0.3745095 0.3119175
-0.09515587 0.11962737 -0.0035758053 0.095805384 0.096475445 0.14656766 0.027209563 0.17244913
0.19158478 -0.10376542 -0.13658178 0.36236593 0.5811467 -0.031137021 -0.119877905 -0.089847095
-0.014713919 -0.035160247 0.04265395 -0.1301475 -0.00034919058 0.11667889 -0.0029810506 -0.066479355
0.032755215 0.49140114 0.0031698488 -0.09187718 0.15514557 0.022258103 0.046013318 -0.034020964
0.3004693 0.01845751 0.18596198 -0.021933032 0.28097683 0.090695314 0.48676938 -0.12005714
-0.16210492 -0.004372604 0.4232627 0.076707125 -0.13457908 0.049851123 0.102483384 0.059033252
00000000: 2704 033d 3fcb 0f3d 7942 f13d 556a 083e
00000010: 5f13 553d c563 153e 2ed7 943d aedc 3abc
00000020: 5738 3bbd 3b97 f83e 1256 dcbd d6b8 f5bd
00000030: c640 82bb d410 8b3d b6bf bf3e a7b3 9f3e
00000040: 15e1 c2bd 32ff f43d 0f58 6abb 9d35 c43d
00000050: eb94 c53d d515 163e 97e6 de3c 8196 303e
00000060: cd2e 443e f782 d4bd 18dc 0bbe 0788 b93e
00000070: 08c6 143f 1113 ffbc 8c82 f5bd c101 b8bd
00000080: a612 71bc 3104 10bd e9b5 2e3d 6345 05be
00000090: 9113 b7b9 58f5 ee3d bb5d 43bb 5426 88bd
000000a0: 552a 063d ee98 fb3e 3dbd 4f3b 1a2a bcbd
000000b0: 7bde 1e3e a056 b63c 7678 3c3d 9159 0bbd
000000c0: 1dd7 993e 3434 973c d16c 3e3e e7ac b3bc
000000d0: 32dc 8f3e 77be b93d d639 f93e 85e0 f5bd
000000e0: d5fe 25be 1048 8fbb e3b5 d83e a018 9d3d
000000f0: 19cf 09be b130 4c3d cfe2 d13d dacc 713d

layers.1.weight f4 [5, 64]
0.16467607 -0.007389605 0.06277485 -0.14754419 0.080210626 0.18661776 0.057909176 -0.06910353
0.13162096 -0.2758514 0.03373224 -0.1384165 -0.14519195 -0.016467273 -0.2624399 0.28329137
-0.107099235 0.15106338 -0.06593989 0.12173737 -0.04424603 0.17430462 0.29984444 -0.17196888
-0.10773419 0.0394927 0.22434022 -0.2715634 -0.15517174 0.005143523 0.264255 0.03560984
0.12883468 0.0968308 -0.011497806 0.19819692 -0.09030142 -0.030787522 -0.14201282 -0.08129901
-0.05502404 -0.16100876 0.034117073 -0.1178133 -0.005923107 0.075956374 -0.113102816 0.23208767
-0.115914084 0.07142364 -0.081434354 -0.06362529 -0.042790815 0.18228623 0.49961436 0.06474688
0.23538655 -0.16829774 0.4182577 0.06003547 -0.12920432 -0.115708426 0.07486524 -0.10700322
-0.100950904 -0.042570878 0.14385104 0.047037907 -0.042196866 -0.14677225 0.12049147 -0.052351687
0.037394516 -0.16511223 0.05151938 0.12628543 -0.02659145 -0.09577527 0.39574826 -0.18108633
0.31997883 -0.05710317 -0.09864299 0.10018446 0.18971458 -0.122579396 0.10331393 -0.14544755
0.113820665 0.021279022 0.11991638 0.2980011 -0.22472703 0.007694017 -0.112499066 -0.13949758
0.06218443 0.06954493 -0.011806746 0.11642003 0.16625713 -0.113672875 -0.10209391 0.12000559
-0.023636969 0.31043926 -0.118646145 0.03139334 -0.09924984 -0.05724764 0.22865953 0.09375566
0.054127883 -0.16506727 -0.07620314 -0.022847176 -0.1379172 -0.06356152 -0.037454743 0.044125788
-0.039802022 -0.31426725 -0.2641376 -0.033465337 0.08339329 0.012459656 -0.03943239 0.3140673
0.05467362 -0.004956314 -0.07398958 0.10610809 0.046261292 -0.088761315 0.02669442 -0.009785739
0.109387875 0.45059624 -0.20871484 -0.050313804 0.16361208 0.0018703179 -0.25727448 -0.109182
-0.15610181 0.09128863 0.08305195 0.0074492353 0.18247204 -0.18319647 -0.12071779 0.09322613
0.0022947935 -0.03191868 -0.15275966 -0.22679867 -0.30996516 0.22578204 -0.08106686 -0.025533175
0.051624388 -0.022647377 0.08273246 0.01637352 -0.14044191 0.21705715 0.16019008 -0.058927935
0.022216456 -0.08983414 0.049438532 -0.07425892 -0.082479805 0.19888017 -0.01691463 -0.17067052
-0.17852177 -0.027162792 -0.10957023 -0.19060159 0.60107327 0.13961196 -0.13625951 -0.032385062
0.11155853 0.1061337 -0.31809753 0.09245293 -0.26841247 0.070478894 -0.114556834 0.014673711
0.06305443 -0.007431243 0.042888764 -0.090333 0.09375442 0.13648815 -0.039754264 -0.015939906
-0.16500127 -0.23665479 0.043862812 0.08232537 -0.05962181 -0.005348038 -0.12493039 -0.07604339
-0.1529982 -0.170256 -0.037501648 -0.064248465 -0.38145638 0.09353752 -0.17059593 0.18901677
0.09634307 -0.07994008 -0.099599 -0.26046708 0.6360292 -0.13850714 -0.0390631 0.007374973
0.050048824 -0.06008579 0.06907945 -0.07169388 -0.08968888 0.05135593 -0.068934314 -0.049578283
0.12802687 -0.12117449 -0.069421135 -0.00658953 0.18447348 0.075031646 -0.11630023 -0.0389623
-0.18674476 -0.0043794694 0.041683577 -0.003780766 -0.2861759 -0.07672097 -0.12452329 0.012167428
-0.17995793 0.30126956 -0.2695027 -0.011846283 0.23424812 0.12531595 0.18830392 -0.1290019
00000000: d8a0 283e 8024 f2bb 1a90 803d d315 17be
00000010: 7845 a43d ba18 3f3e 2c32 6d3d 2786 8dbd
00000020: a5c7 063e 653c 8dbe d12a 0a3d 0ebd 0dbe
00000030: 33ad 14be 60e6 86bc 865e 86be 910b 913e
00000040: d856 dbbd 5cb0 1a3e 7e0b 87bd 7151 f93d
00000050: 533b 35bd e97c 323e 3685 993e 9c18 30be
00000060: bea3 dcbd 19c3 213d 71b9 653e 5c0a 8bbe
00000070: 57e5 1ebe 008b a83b 6e4c 873e a0db 113d
00000080: 3ded 033e 3a4f c63d 4b61 3cbc 22f4 4a3e
00000090: f3ef b8bd 1d36 fcbc cf6b 11be 1880 a6bd
000000a0: e360 61bd 7bdf 24be 58be 0b3d 1948 f1bd
000000b0: 9f16 c2bb 048f 9b3d 73a2 e7bd 64a8 6d3e
000000c0: 5d64 edbd 8f46 923d 0ec7 a6bd fa4d 82bd
000000d0: 6c45 2fbd 3ea9 3a3e 74cd ff3e 039a 843d
000000e0: 2c09 713e 3e56 2cbe e025 d63e c1e7 753d
000000f0: 234e 04be 8af8 ecbd f252 993d 8124 dbbd
00000100: 59bf cebd cd5e 2ebd b04d 133e d2aa 403d
00000110: 9fd6 2cbd 774b 16be 3bc4 f63d b96e 56bd
00000120: fe2a 193d 2e13 29be fc05 533d f850 013e
00000130: 50d6 d9bc d325 c4bd 849f ca3e b26e 39be
00000140: 44d4 a33e 03e5 69bd 5605 cabd 832d cd3d
00000150: 8a44 423e e80a fbbd 4196 d33d 34f0 14be
00000160: cf1a e93d 5851 ae3c b896 f53d 9a93 983e
00000170: d81e 66be 181e fc3b e965 e6bd 74d8 0ebe
00000180: 1ab5 7e3d 926d 8e3d 1571 41bc a06d ee3d
00000190: 4f3f 2a3e 53cd e8bd 9d16 d1bd 7ec5 f53d
000001a0: 51a2 c1bc e5f1 9e3e c0fc f2bd 4e96 003d
000001b0: 8043 cbbd 807c 6abd b925 6a3e f802 c03d
000001c0: 33b5 5d3d 6507 29be 6410 9cbd 002a bbbc
000001d0: 2b3a 0dbe 8b2c 82bd 256a 19bd 3ebd 343d
000001e0: 7207 23bd a3e7 a0be 0b3d 87be f312 09bd
000001f0: 1aca aa3d 9623 4c3c dc83 21bd 6ecd a03e
00000200: 72f1 5f3d 9368 a2bb d987 97bd 334f d93d
00000210: 7b7c 3d3d 7ec8 b5bd 42ae da3c 5d54 20bc
00000220: c006 e03d 8db4 e63e 58b9 55be d915 4ebd
00000230: ed89 273e 7425 f53a 7bb9 83be d09a dfbd
00000240: 27d9 1fbe 89f5 ba3d 2417 aa3d b718 f43b
00000250: f3d9 3a3e db97 3bbe e43a f7bd 57ed be3d
00000260: 3f64 163b 29bd 02bd 076d 1cbe e93d 68be
00000270: c1b3 9ebe 6833 673e 6206 a6bd f32a d1bc
00000280: 1874 533d fe86 b9bc a36f a93d c321 863c
00000290: 01d0 0fbe 3b44 5e3e de08 243e 6b5e 71bd
000002a0: 49ff b53c f6fa b7bd 0f80 4a3d 1015 98bd
000002b0: 2ceb a8bd 3ea7 4b3e 8d90 8abc 41c4 2ebe
000002c0: 69ce 36be 8184 debc 5b66 e0bd 102d 43be
000002d0: f0df 193f 70f6 0e3e 9d87 0bbe 33a6 04bd
000002e0: cc78 e43d a05c d93d aedd a2be f657 bd3d
000002f0: 5c6d 89be 3d57 903d c69c eabd 016a 703c
00000300: ae22 813d c981 f3bb 21ac 2f3d 8200 b9bd
00000310: 5102 c03d 8dc3 0b3e 5ed5 22bd 6894 82bc
00000320: 18f6 28be a255 72be 7ea9 333d 349a a83d
00000330: 0036 74bd 983e afbb 81db ffbd a3bc 9bbd
00000340: 8fab 1cbe 9757 2ebe 549b 19bd b394 83bd
00000350: 404e c3be 9990 bf3d b3b0 2ebe 9d8d 413e
00000360: 844f c53d a0b7 a3bd 8ffa cbbd f15b 85be
00000370: cfd2 223f d1d4 0dbe a100 20bd c2a9 f13b
00000380: ffff 4c3d 841c 76bd 8779 8d3d 3ed4 92bd
00000390: ceae b7bd 985a 523d 6f2d 8dbd 9912 4bbd
000003a0: 7a19 033e 552a f8bd ab2c 8ebd fcec d7bb
000003b0: 9ee6 3c3e 31aa 993d d12e eebd ef96 1fbd
000003c0: 053a 3fbe a781 8fbb 66bc 2a3d bac6 77bb
000003d0: a685 92be e21f 9dbd 1106 ffbd e459 473c
000003e0: e446 38be 0140 9a3e 42fc 89be ea16 42bc
000003f0: bdde 6f3e d352 003e bed2 403e 1319 04be

layers.1.bias f4 [5]
-0.01871403 -0.13243844 0.14572752 0.19037086 -0.18994859
00000000: 2a4e 99bc f19d 07be 9839 153e 94f0 423e
00000010: e281 42be
