src/bread/algo/lineage/saved_models/best_model_with_fake_candid_thresh8_frame_num8_normalized_False.pth (torch, 19167 bytes, 4 tensors)

layers.0.weight f4 [64, 64]
0	0x3d3a3160	0.045457244
1	0x3b108155	0.0022049744
2	0xbce535df	-0.02797979
3	0x3e405060	0.1878066
4	0xbec8e165	-0.39234462
5	0xbe02d312	-0.1277583
6	0xbcb531c3	-0.022118455
7	0x3cde1488	0.0271094
8	0xbc0b40e4	-0.008499358
9	0xbd87adce	-0.066249475
10	0x3da0dcd9	0.07854623
11	0xbd8f5134	-0.0699791
12	0xbdd0453d	-0.10169456
13	0x3d8616bb	0.06547304
14	0x3d5a3e8d	0.05328231
15	0xbe839517	-0.25699684
16	0x3def26e3	0.11677339
17	0x3b40eb98	0.00294373
18	0xbd5a12a1	-0.053240422
19	0xbd6e3726	-0.058158062
20	0x3ea9f1dc	0.33192337
21	0x3e4bf0b2	0.19916037
22	0xbd2cf688	-0.042227298
23	0x3e305e23	0.1722341
24	0x3d875c80	0.0660944
25	0xbdb362c6	-0.08759074
26	0x3cbbed75	0.022940377
27	0x3da2b0de	0.07943891
28	0x3e4ce59e	0.20009467
29	0xbe175a56	-0.14780554
30	0x3e057e68	0.13036501
31	0x3e291997	0.16513668
32	0x3ca907a7	0.020633532
33	0xbddef386	-0.10886292
34	0xbdc0ea48	-0.094196856
35	0x3d4f42e5	0.050600905
36	0xbdd7ff14	-0.10546699
37	0x3d604087	0.054749038
38	0x3ce57fcd	0.028015042
39	0xbd5893c1	-0.052875284
40	0xbbbc9a35	-0.0057556876
41	0xbd8386b9	-0.06422181
42	0x3d2409f9	0.040048573
43	0x3e05e137	0.13074194
44	0x3d2d5766	0.042319678
45	0xbcb9ec50	-0.02269569
46	0x3cd9f218	0.026604697
47	0xbe0affb2	-0.13574103
48	0x3d3e0a11	0.04639632
49	0xbe214436	-0.15748677
50	0xbe2ee3eb	-0.17079131
51	0xbdcff6d2	-0.10154499
52	0xbda879fd	-0.082263924
53	0x3defa409	0.11701209
54	0x3d3b6ba6	0.04575696
55	0x3d6b88e3	0.057503592
56	0x3d4bdae4	0.049769297
57	0xbd54a42e	-0.051914386
58	0x3da45cab	0.080254875
59	0xbd870853	-0.065933846
60	0x3cb2b2e9	0.021813827
61	0xbde24a03	-0.11049273
62	0xbc188fcc	-0.009311628
63	0x3dc843d4	0.09778562
64	0xbe8461ee	-0.25855964
65	0xbed4b56b	-0.4154466
66	0x3df3456b	0.11878475
67	0xbdf3981a	-0.118942454
68	0xbd919c33	-0.07109871
69	0xbdf055d4	-0.117351204
70	0x3d441a66	0.047876738
71	0xbdc8ff4e	-0.098143205
72	0x3e071a7c	0.13193697
73	0xbd79590d	-0.06087594
74	0xbe31daae	-0.17368576
75	0xbe9cd9f4	-0.30635035
76	0xbdd68c04	-0.104759246
77	0xbd9cc2ae	-0.0765432
78	0x3d2a1185	0.041520614
79	0x3e8eecca	0.2791503
80	0xbe85df11	-0.2614675
81	0xbeb279c9	-0.3485854
82	0x3d9f4db2	0.07778491
83	0xbdd20c01	-0.10256196
84	0x3db9996c	0.09062466
85	0xbcdeb5f3	-0.02718637
86	0x3d86808b	0.065674864
87	0xbe570515	-0.20998032
88	0x3c89faa4	0.016843148
89	0x3db33634	0.08750573
90	0xbd36fda3	-0.04467548
91	0xbe8c3623	-0.27385053
92	0x3cefa221	0.029252114
93	0xbda5fa0d	-0.08104334
94	0xbd51da5e	-0.05123364
95	0x3e3aa057	0.18225227
96	0x3f034b27	0.5128655
97	0x3e07f951	0.132787
98	0x3e0417e5	0.1289974
99	0x3e14caca	0.14530483
100	0xbe2e3a35	-0.17014392
101	0x3e406dd6	0.18791899
102	0x3ea1df08	0.31615472
103	0x3e501a6d	0.2032258
104	0x3e245bc1	0.16050626
105	0x3e60202c	0.21887273
106	0x3e8efc46	0.27926844
107	0x3ecad5be	0.39616197
108	0x3e651593	0.22371511
109	0x3eb6b5b5	0.35685506
110	0x3ed1e717	0.4099662
111	0xbea07749	-0.31341007
112	0xbe6b17a8	-0.22958243
113	0xbeef91a2	-0.46790797
114	0xbce2737c	-0.027642958
115	0xbd828c89	-0.06374461
116	0xbb4994aa	-0.0030758777
117	0xbe11a234	-0.14222032
118	0xbda7282a	-0.081619576
119	0xbe658e15	-0.22417481
120	0x3d45ab27	0.048258927
121	0x3cdd27e8	0.026996568
122	0xbd2a2b77	-0.041545358
123	0xbe89a4fd	-0.2688369
124	0xbd7ac72b	-0.061225098
125	0xbe2efabe	-0.17087838
126	0x3d91f075	0.07125942
127	0x3d524d5d	0.05134331
128	0x3d9ea51a	0.077463344
129	0xbd84cdd0	-0.06484568
130	0x3defe0a8	0.11712772
131	0x3dfc60ce	0.123231515
132	0xbecfeb00	-0.40608978
133	0xbc885718	-0.016643092
134	0x3ce460e7	0.027878238
135	0xbd2f817e	-0.042848103
136	0xbe35b02f	-0.1774299
137	0xbd94ef3d	-0.072721936
138	0x3cd23f3f	0.025664924
139	0xbdb8794a	-0.09007509
140	0xbd80b800	-0.06285095
141	0xbcc24117	-0.023712678
142	0x3db33c4e	0.087517366
143	0xbeaf1074	-0.3419224
144	0xbda9636e	-0.08270918
145	0xbd9142fe	-0.07092856
146	0xba947542	-0.001132645
147	0x3e37f3cd	0.17964096
148	0xbea8f569	-0.32999733
149	0xbeac1d58	-0.33616138
150	0x3e136291	0.14393069
151	0xbdf66aad	-0.120320655
152	0xbe47bfe1	-0.1950679
153	0xbce62c85	-0.0280974
154	0x3da67b33	0.08128967
155	0xbe68709f	-0.22699212
156	0xbe1b0fee	-0.15142795
157	0x3dee4f0e	0.11636172
158	0x3d5206f4	0.051276162
159	0xbe8bb340	-0.27285194
160	0x3e3facd7	0.18718277
161	0x3e1e4f98	0.1546005
162	0x3db7c5cc	0.08973274
163	0xbe3c686f	-0.18399213
164	0x3f120855	0.57043964
165	0x3e677b0d	0.22605534
166	0xbdfe67b4	-0.124221236
167	0x3e2a7db0	0.16649508
168	0x3e600455	0.21876653
169	0xbdc1d0ff	-0.09463691
170	0x3c8580d2	0.016296778
171	0x3e042014	0.12902862
172	0x3e9f1298	0.31068873
173	0xbdec5c81	-0.11541081
174	0xbcbe73cb	-0.023248574
175	0x3e357fd2	0.17724541
176	0xbd9f960c	-0.07792291
177	0x3d9cd999	0.07658691
178	0x3df4560b	0.11930474
179	0xbe069ce0	-0.1314578
180	0x3e6294cd	0.22127075
181	0x3df4463a	0.11927457
182	0xbc2f703b	-0.01070791
183	0xbd5ad331	-0.053424064
184	0x3dd80f5d	0.10549805
185	0x3d8faefc	0.070157975
186	0x3d9f2d84	0.07772353
187	0x3d22816f	0.03967422
188	0x3d676d41	0.056500677
189	0x3bd31ae9	0.006442417
190	0x3c9a5774	0.018840529
191	0xbc543c16	-0.012953779
192	0x3e03e7cd	0.12881394
193	0x3e50576d	0.2034585
194	0x3ca7295b	0.020405462
195	0xbdb84635	-0.08997766
196	0x3ed30d62	0.41221148
197	0x3e229674	0.15877706
198	0xbd28498c	-0.041085765
199	0x3d7ba366	0.061435126
200	0x3b865a80	0.004100144
201	0xbd12aa6a	-0.03580705
202	0x3e2201cc	0.15820998
203	0x3defe703	0.11713984
204	0x3e310721	0.17287876
205	0xbe0922a4	-0.1339212
206	0xbb18eca1	-0.0023334401
207	0x3df554ba	0.11979051
208	0x3c38f410	0.011288658
209	0xbcbec7de	-0.023288663
210	0x3da709a3	0.08156135
211	0x3df2f903	0.118639015
212	0xbec1fe1d	-0.37889186
213	0xbe2e5c60	-0.17027426
214	0x3c93432f	0.017976372
215	0x3de2a041	0.11065722
216	0xbd5a280d	-0.05326085
217	0x3ccbab0e	0.024861839
218	0x3d4fa0c5	0.05069043
219	0xbe0aa734	-0.13540345
220	0xbe393832	-0.18087843
221	0x3dfab4e7	0.12241536
222	0xbc84af55	-0.016196886
223	0xbe7462c2	-0.23865798
224	0xbdc2cdf7	-0.09511941
225	0xbc6403bb	-0.013916905
226	0x3dad305c	0.084564894
227	0x3e0a39f2	0.13498667
228	0xbee8f364	-0.45498192
229	0xbe80384b	-0.25042948
230	0xbc94559d	-0.01810723
231	0x3dc726d0	0.097242
232	0xbce361db	-0.027756622
233	0x3e387826	0.18014583
234	0x3dad1a6e	0.08452307
235	0xbc8016c5	-0.015635857
236	0xbdec2cbb	-0.11531969
237	0x3c2e13cf	0.01062484
238	0xbd738065	-0.05944862
239	0xbeca0926	-0.39460105
240	0x3dddcfc9	0.108306475
241	0x3cb9114d	0.022591257
242	0x3c1ddf59	0.00963577
243	0xbdb0a35d	-0.08624909
244	0x3e867769	0.26262978
245	0x3d0c4b4a	0.03425149
246	0xbdc3c0f5	-0.09558288
247	0x3db02c17	0.086021595
248	0x3d56cc02	0.05244065
249	0x3da83697	0.08213537
250	0x3c07f4db	0.008298124
251	0x3b06c4b7	0.0020564029
252	0x3e0c0a8f	0.13675903
253	0xbdc2329e	-0.09482311
254	0xbc33f0af	-0.010982676
255	0x3e663088	0.2247945

layers.0.bias f4 [64]
0	0xbd052979	-0.032510255
1	0x3ea19fab	0.3156713
2	0x3e2a0579	0.1660365
3	0x3de6627e	0.11249255
4	0x3cc7ce00	0.02439022
5	0x3e2b2571	0.16713502
6	0xbdb4643b	-0.0880818
7	0x3e49ad70	0.19695067
8	0xbd36550a	-0.044514693
9	0x3e3215da	0.17391148
10	0xbdc169f7	-0.09444039
11	0xbe021a20	-0.12705278
12	0x3d118e5f	0.035536166
13	0x3d9fd019	0.07803363
14	0x3e60b39a	0.21943513
15	0x3dac7669	0.084210224
16	0xbd76ecab	-0.060284298
17	0x3dd30b9c	0.10304949
18	0xbe211797	-0.15731655
19	0x3e1ad2ee	0.15119526
20	0x3d77e5a1	0.060521726
21	0x3e2c72dc	0.1684069
22	0x3d98c0cc	0.07458648
23	0x3de014b1	0.109414466
24	0x3e2b2e2b	0.1671683
25	0xbdd1d55c	-0.10245773
26	0xbde2faba	-0.110829785
27	0x3e803746	0.2504217
28	0x3ee8ff17	0.45507118
29	0xbbbea430	-0.0058179125
30	0xbda24658	-0.07923573
31	0xbdce7b70	-0.100821376
32	0xbdbd45cd	-0.09241829
33	0x3be745ca	0.00705788
34	0x3eae6758	0.3406322
35	0xbd97c3a0	-0.074103594
36	0x3db3890f	0.08766376
37	0x3e49cec4	0.19707781
38	0xbdf09fa2	-0.117491975
39	0xbc9d2a53	-0.01918522
40	0x3ba6ca20	0.005090013
41	0x3da0398b	0.078234755
42	0x3d0a99e8	0.033838183
43	0xbdffafc6	-0.12484698
44	0x3e36eecc	0.17864531
45	0xbe45fab1	-0.19333912
46	0x3d940a2c	0.07228503
47	0xbd0909f0	-0.033456743
48	0x3ec09828	0.37616086
49	0xbd454851	-0.04816467
50	0x3e01e7bd	0.12686057
51	0x3c480624	0.012208495
52	0xbd9d2026	-0.076721475
53	0x3e52107a	0.20514098
54	0x3eca65f8	0.3953092
55	0x3ec78803	0.38970956
56	0xbe2594d8	-0.1617006
57	0xbd9fb2ef	-0.07797801
58	0x3ea83b32	0.32857662
59	0x3d3b1ed9	0.045683715
60	0xbddb4dc7	-0.10708194
61	0x3d2a0392	0.04150731
62	0x3e1728b0	0.14761615
63	0x3dab8882	0.08375646

layers.1.weight f4 [4, 64]
0	0x3df431b5	0.11923543
1	0xbed06825	-0.40704456
2	0x3db43575	0.087992586
3	0xbe316fdb	-0.17327826
4	0x3e5a634a	0.21326938
5	0x3e527cc9	0.20555414
6	0xbb5d3905	-0.003375591
7	0x3e49630a	0.19666687
8	0x3e8c72bc	0.27431285
9	0xbee8171f	-0.4533014
10	0x3cbe703b	0.023246875
11	0xbeab25f3	-0.3342739
12	0xbe91d0af	-0.28479525
13	0xbaf5533e	-0.0018716825
14	0xbeb02d9c	-0.34409797
15	0xbcb2dfd4	-0.021835245
16	0xbdca7c42	-0.098869815
17	0x3dfe29cd	0.124103166
18	0xbd9c49f4	-0.07631293
19	0x3e0e00c1	0.13867475
20	0xbd305cc1	-0.043057207
21	0x3e6ee1eb	0.23328368
22	0x3e14ca22	0.14530233
23	0xbe20a64c	-0.15688437
24	0xbe3e3cc9	-0.18577875
25	0x3de9957e	0.114054665
26	0x3e50be2e	0.20385048
27	0xbeaf29c3	-0.3421155
28	0xbec6c5ea	-0.3882287
29	0xbdbbc743	-0.091688655
30	0x3ce48ea9	0.027900057
31	0x3d09f07a	0.033676602
32	0x3ea2d402	0.31802374
33	0x3dbd3191	0.0923797
34	0xbebc7014	-0.3680426
35	0x3e868cf2	0.26279408
36	0xbe7c6d4d	-0.2465107
37	0xbde2e4bd	-0.110787846
38	0xbe1589da	-0.14603367
39	0xbe24fec6	-0.16112813
40	0xbdeda3d6	-0.11603515
41	0xbea27274	-0.31727946
42	0x3cf5db11	0.030011686
43	0xbe6fd7b6	-0.23422131
44	0x3dbe73be	0.0929942
45	0xbc3ba23f	-0.011452257
46	0xbe3934cc	-0.18086547
47	0x3e8a15a2	0.2696963
48	0xbec4ff6c	-0.3847612
49	0x3dc545e4	0.09632471
50	0xbe08fe85	-0.13378341
51	0xbe4b4fa2	-0.19854596
52	0xbcc72052	-0.024307404
53	0x3ef4363b	0.47697625
54	0x3effacb6	0.49936455
55	0xbecb3551	-0.39689115
56	0x3e992366	0.2990982
57	0xbd832919	-0.06404323
58	0x3ee3b405	0.44473282
59	0x3d22ac48	0.03971508
60	0xbe54a5cb	-0.2076637
61	0xbe7c22cd	-0.2462265
62	0x3d2f236b	0.042758387
63	0xbddaaa2e	-0.106769904
64	0xbde04eda	-0.1095254
65	0xbee8afee	-0.45446724
66	0x3e2bfbea	0.16795316
67	0x3d6e1ba3	0.058131825
68	0xbe5182ca	-0.20460048
69	0xbe2b38a8	-0.16720831
70	0x3d3b2945	0.045693655
71	0xbeabeb95	-0.33578172
72	0xbd2682d8	-0.040652126
73	0xbe973a6e	-0.29536766
74	0x3d05c00a	0.032653846
75	0x3eabebe7	0.33578417
76	0x3d372664	0.044714347
77	0xbe0831f7	-0.1330031
78	0x3ed38b52	0.4131723
79	0xbd209bb5	-0.039210994
80	0x3e3a5379	0.18195905
81	0xbdf21683	-0.118207
82	0xbe63c9de	-0.22244975
83	0x3dd39fac	0.10333189
84	0x3ddeb10e	0.10873614
85	0xbe55c871	-0.20877244
86	0x3e19246e	0.14955303
87	0xbde95300	-0.11392784
88	0x3e0606e8	0.13088572
89	0xbbd3631d	-0.006451024
90	0x3e10952b	0.14119403
91	0x3ea33905	0.3187944
92	0xbedbde90	-0.4294324
93	0xbd2d7fc7	-0.042358186
94	0x3d4d72fc	0.050158486
95	0xbe0659cc	-0.13120192
96	0xb48dfd00	-2.6447378e-07
97	0x3daf237a	0.085516885
98	0xbea3c5ba	-0.3198679
99	0x3e5722f7	0.21009432
100	0x3e880056	0.26562756
101	0xbe3ae10a	-0.18249908
102	0xbe06263a	-0.1310052
103	0x3decfd8e	0.11571799
104	0xbd868572	-0.065684214
105	0x3dc2d23c	0.09512755
106	0xbe193041	-0.14959814
107	0x3e30b3c2	0.17256072
108	0xbe61ef78	-0.22064006
109	0x3e2d2ee7	0.16912423
110	0x3e90d5b6	0.28288049
111	0x3d810aea	0.0630091
112	0x3e9747e3	0.29547033
113	0xbe4d3209	-0.20038618
114	0xbdca479a	-0.09876938
115	0x3c4f09cc	0.012636613
116	0x3e445e61	0.19176628
117	0xbe26e73c	-0.16299146
118	0xbe01fefa	-0.12694922
119	0x3e3b9d0f	0.18321632
120	0xbd5be967	-0.053689387
121	0xbe8b141e	-0.27163786
122	0xbebdc748	-0.37066102
123	0xbd6cfcdd	-0.057858337
124	0x3dec8542	0.115488544
125	0xbb4c5546	-0.0031178757
126	0xbd97503a	-0.07388349
127	0x3e87f234	0.26551974
128	0x3d7147cb	0.058906358
129	0x3f00d2a6	0.50321424
130	0xbe3c57ea	-0.18392912
131	0x3ddd4b11	0.108053334
132	0xbc951626	-0.018199038
133	0xbdf61c00	-0.12017059
134	0x3d494a23	0.049142968
135	0xbdba92dd	-0.09110043
136	0x3d2f49ae	0.042794876
137	0x3ec64842	0.38727003
138	0xbe6f4d9f	-0.23369454
139	0xbd63f137	-0.055649962
140	0x3dd0a8e8	0.10188466
141	0x3a04c155	0.0005064209
142	0xbeb0a36a	-0.34499675
143	0x3a50956c	0.0007956836
144	0xbdf8ab0b	-0.12141999
145	0x3e5bc0b2	0.21460226
146	0x3e9caaa9	0.30598953
147	0xbdc8fa8e	-0.098134145
148	0x3e0aea56	0.13565955
149	0xbe5ef340	-0.2177248
150	0xbe0a2cd3	-0.13493662
151	0x3d9dda17	0.07707613
152	0x3d0951ab	0.03352515
153	0xbd312bcb	-0.043254655
154	0xbe3ccddb	-0.18437903
155	0xbeacfcac	-0.33786523
156	0xbed2b15d	-0.41150942
157	0x3ec69524	0.3878566
158	0xbc6ef228	-0.014584102
159	0xbcb8ccc0	-0.02255857
160	0xbde6e23d	-0.1127362
161	0xbdcd0d35	-0.10012285
162	0x3ef9ac5c	0.48764312
163	0xbdd00cff	-0.10158729
164	0xbea2ed25	-0.31821552
165	0x3e684c46	0.22685346
166	0x3e5cbfb3	0.21557502
167	0xbe28b3e0	-0.16474867
168	0x3d4c8e4a	0.049940385
169	0x3efeddf5	0.49778715
170	0x3c31214b	0.01081116
171	0xbe35d9c5	-0.17758854
172	0xbe2dcf54	-0.1697362
173	0x3ab7d71b	0.0014025898
174	0xbbcc8559	-0.006241482
175	0xbe98ead7	-0.2986667
176	0xbea69ed7	-0.3254306
177	0x3c02a776	0.007974496
178	0xbe24c026	-0.16088924
179	0xbd65fd8a	-0.056149997
180	0x3e1e6414	0.15467864
181	0xbeb6edde	-0.35728353
182	0xbe80601f	-0.25073335
183	0xbee7956f	-0.45231196
184	0x3e2865bf	0.16445063
185	0x3da0c815	0.078506626
186	0xbee2a787	-0.44268438
187	0x3e325796	0.17416224
188	0xbeac08f3	-0.33600578
189	0x3da0121c	0.07815954
190	0xbe631d87	-0.22179233
191	0xbd240198	-0.040040582
192	0x3cc097ae	0.023509827
193	0xbe9e7eb7	-0.3095605
194	0xbd3a2727	-0.045447495
195	0xbdbf880f	-0.09352123
196	0x3e3045aa	0.17214075
197	0x3e2ed023	0.17071585
198	0x3c51c5c1	0.012803496
199	0xbdf4d56d	-0.1195477
200	0xbead62d4	-0.33864462
201	0xbeac52b7	-0.33656856
202	0xbcd89f7b	-0.026443234
203	0xbe570cdd	-0.21001
204	0xbb5b7aa2	-0.0033489843
205	0x3d2abeb0	0.04168576
206	0xbe5af7b5	-0.21383555
207	0xbd3bf022	-0.045883305
208	0xbdcdad81	-0.10042859
209	0xbe951b7c	-0.2912253
210	0xbe22f068	-0.1591202
211	0xbdb80c9f	-0.08986782
212	0xbe7274cf	-0.23677371
213	0x3dcb58dc	0.09929058
214	0xbe117eaf	-0.14208482
215	0x3e22f9bb	0.15915577
216	0x3d427639	0.047476027
217	0xbe4e4d9a	-0.2014679
218	0xbdf57847	-0.11985832
219	0xbebbd9a7	-0.36689493
220	0x3ef6cb33	0.48201904
221	0xbe5ba0f8	-0.21448123
222	0x3c629f78	0.013831966
223	0x3b31fae0	0.002715759
224	0xbd82fab4	-0.06395474
225	0xbda110cf	-0.07864534
226	0xbe98252a	-0.29715854
227	0xbe667606	-0.2250596
228	0xbdb7e106	-0.08978467
229	0x3e1441d7	0.14478241
230	0xbd75095b	-0.059823375
231	0x3bba4fd9	0.005685788
232	0x3e440973	0.1914423
233	0xbedab076	-0.42712754
234	0xbd475833	-0.048668098
235	0xbb33b1ea	-0.0027419277
236	0x3e97d2fb	0.29653153
237	0x3d9c9842	0.076462284
238	0xbe5b94bd	-0.21443458
239	0xbda7c1c0	-0.08191252
240	0xbea3a658	-0.31962848
241	0xbe0e7858	-0.13913095
242	0x3e076c91	0.13225009
243	0xbd549d07	-0.051907565
244	0xbe861c0b	-0.2619327
245	0xbe613c2f	-0.21995614
246	0xbe840746	-0.257868
247	0x3ee56588	0.44804025
248	0xbe6ee826	-0.23330745
249	0x3e8543a0	0.26028156
250	0xbea11911	-0.31464437
251	0xbd7e0166	-0.062013052
252	0x3e9382b3	0.28810653
253	0x3e475abc	0.19468206
254	0x3e89d182	0.26917654
255	0xbdfb13cf	-0.122596376

layers.1.bias f4 [4]
0	0x3d1ab25f	0.037767764
1	0xbe20eb60	-0.15714788
2	0xbd90077b	-0.07032677
3	0x3dcafa99	0.09911079
