src/bread/algo/lineage/saved_models/best_model_thresh12_frame_num8_normalized_False.pth (torch, 19423 bytes, 4 tensors)

layers.0.weight f4 [64, 64]
0	0xbb84d700	-0.0040539503
1	0xbc90ca86	-0.017674696
2	0xbd67166e	-0.056417875
3	0x3e4bd9b6	0.19907269
4	0xbefe1952	-0.49628693
5	0xbe7663b7	-0.24061476
6	0x3cbdad8c	0.023154043
7	0xbb9e2faf	-0.0048274617
8	0xbdde8699	-0.10865516
9	0xbd9c6b35	-0.076376356
10	0x3dd0f264	0.10202482
11	0xbdbc706b	-0.092011295
12	0xbe65a3f9	-0.22425832
13	0x3d49c43d	0.049259413
14	0x3dd43704	0.10362056
15	0xbe85043f	-0.25979802
16	0x3ddc2a71	0.107502826
17	0x3dee1e4c	0.116268724
18	0xbd236f81	-0.03990126
19	0xbd601cf3	-0.054715108
20	0x3e97cc01	0.2964783
21	0x3e47c192	0.19507435
22	0xbe008a82	-0.12552837
23	0x3e12f2a8	0.14350379
24	0x3dada105	0.08477978
25	0xbd5a2dc6	-0.05326631
26	0x3be156b8	0.0068767928
27	0x3dac0209	0.08398826
28	0x3e8a3b7a	0.26998502
29	0xbdeb8aad	-0.1150106
30	0x3d967bff	0.07347869
31	0x3df2b599	0.11851043
32	0xbc4c901b	-0.012485529
33	0x3bd153a6	0.0063881455
34	0xbd2ad72d	-0.041709114
35	0x3d9f6f17	0.077848606
36	0xbbea4e04	-0.0071504135
37	0x3dbedeec	0.09319863
38	0x3cc7988f	0.024364738
39	0xbd1d8a0f	-0.03846174
40	0x3cdec30d	0.027192617
41	0xbc6cddf8	-0.014457218
42	0x3d92a525	0.07160405
43	0x3e0bb1c8	0.13642037
44	0x3d9f0990	0.07765496
45	0xbca54192	-0.020172868
46	0x3d3bc9a5	0.0458466
47	0xbcc583e1	-0.024110736
48	0x3d7dc180	0.061952114
49	0xbdcd7151	-0.10031379
50	0xbe4b8419	-0.1987461
51	0xbe347bf7	-0.17625414
52	0x3d2c6437	0.04208776
53	0x3e34069f	0.17580651
54	0xb9ff127e	-0.00048651168
55	0x3d9177e5	0.07102946
56	0x3db613ab	0.0889047
57	0xbd48b799	-0.049003217
58	0x3dd05f34	0.101744086
59	0x3c87ef29	0.016593533
60	0x3e03770c	0.12838382
61	0xbda4c2b9	-0.08044953
62	0xbd01ff13	-0.0317374
63	0x3ddf1080	0.10891819
64	0xbdb07f36	-0.086180136
65	0x3dbb6ddb	0.09151813
66	0x3e124f74	0.14288121
67	0xbd545939	-0.0518429
68	0xbe23e5a6	-0.16005573
69	0xbda43fd7	-0.08019989
70	0x3e157e28	0.14598906
71	0x3d32e83b	0.043678503
72	0x3e10cac6	0.14139852
73	0x3d4187ea	0.04724876
74	0xbd656f58	-0.05601439
75	0xbe23c2d0	-0.15992284
76	0xbdcaa326	-0.09894399
77	0x3de5d637	0.11222499
78	0x3e6ec887	0.23318683
79	0xbd935edb	-0.071958266
80	0xbef3c405	-0.4761049
81	0xbe0eb3a4	-0.13935715
82	0xbe841a14	-0.25801146
83	0xbedf56aa	-0.43620807
84	0x3cc5baad	0.024136866
85	0xbec41f84	-0.38305295
86	0xbed827af	-0.42217776
87	0xbeff48d6	-0.49860257
88	0xbedca393	-0.43093547
89	0xbe08f8be	-0.13376138
90	0xbe660c33	-0.22465591
91	0xbeb61e98	-0.35570216
92	0xbc8a1666	-0.016856384
93	0xbe60f719	-0.2196926
94	0xbe902846	-0.28155726
95	0x3ebbade2	0.366561
96	0x3d47422d	0.048647095
97	0xbcc53ba9	-0.0240763
98	0xbea18d50	-0.31553125
99	0xbefb58e5	-0.4909126
100	0x3c801267	0.015633775
101	0xbd415aa1	-0.04720557
102	0xbe411a7f	-0.18857764
103	0xbe65d97d	-0.22446246
104	0xbd16cb7c	-0.03681515
105	0xbe1943ba	-0.14967242
106	0xbe6c4480	-0.23073006
107	0xbe2b0e86	-0.16704759
108	0xbd7dfcf2	-0.062008806
109	0xbed6333a	-0.41835958
110	0x3d69492e	0.056954555
111	0x3ec51386	0.38491458
112	0x3d29c7e6	0.041450404
113	0x3c4746bf	0.012162863
114	0x3d796e9e	0.06089651
115	0x3e48db77	0.19614969
116	0xbe860f5a	-0.26183587
117	0xbd9cfb77	-0.076651506
118	0x3e4d4770	0.20046782
119	0x3e103920	0.14084291
120	0x3ce62fee	0.028099027
121	0x3e87b49c	0.26504982
122	0x3ecf9921	0.40546516
123	0x3eb90014	0.36132872
124	0x3e8a6b12	0.27034813
125	0x3edeb6f3	0.43498954
126	0x3e2d5e9e	0.16930625
127	0xbeed930b	-0.46401247
128	0x3dd40219	0.103519626
129	0xbd0206fd	-0.031744946
130	0x3dfe11ea	0.124057606
131	0x3dc1ce3f	0.094631664
132	0xbea5e611	-0.3240209
133	0x3c76c07e	0.015060542
134	0x3d34ad3d	0.044110525
135	0xbcd0c86e	-0.025486197
136	0xbe25f0df	-0.16205166
137	0xbdb617b4	-0.0889124
138	0x3d36bac5	0.04461171
139	0xbd94e935	-0.07271043
140	0xbd0c09bc	-0.03418897
141	0xbd5aa9b0	-0.053384483
142	0x3e0bedfd	0.13665004
143	0xbe8f11c4	-0.27943242
144	0xbd2a12a2	-0.041521676
145	0xbcb73b39	-0.022367107
146	0x3d90cc86	0.0707026
147	0x3e6123e3	0.21986346
148	0xbea2c5b1	-0.31791452
149	0xbe8b624b	-0.2722343
150	0x3e2edbce	0.17076036
151	0xbcdc897a	-0.026921023
152	0xbe0c4cc5	-0.1370116
153	0xbdb3f9cd	-0.0878788
154	0x3de7fd74	0.11327639
155	0xbe01866e	-0.12648937
156	0xbe05913c	-0.13043684
157	0x3d87b300	0.066259384
158	0x3da74c5b	0.081688605
159	0xbe63dabf	-0.22251414
160	0x3e35ee6c	0.17766732
161	0x3df77d5a	0.12084456
162	0x3cce05b6	0.025149208
163	0xbe60b4f3	-0.21944027
164	0x3f0c10f3	0.5471336
165	0x3e78d3ef	0.24299596
166	0xbe0a0ad1	-0.13480689
167	0x3e2422c2	0.16028884
168	0x3e82e07f	0.25561902
169	0xbd30742e	-0.043079548
170	0x3c9fe557	0.019518537
171	0x3e246b9a	0.16056672
172	0x3ec04979	0.37556055
173	0xbd30d1e0	-0.043168902
174	0xbd8512b1	-0.06497706
175	0x3e3d8a2f	0.18509744
176	0xbd282dcc	-0.0410593
177	0x3dc0c67a	0.094128564
178	0x3e051d18	0.1299938
179	0xbde44b0c	-0.111471266
180	0x3e16f4c7	0.14741813
181	0x3e081191	0.13287951
182	0x3c8ba2cd	0.017045403
183	0xbccdfee4	-0.025145955
184	0x3df497e9	0.11943037
185	0x3dc8b854	0.09800783
186	0x3db714f6	0.08939545
187	0x3d2f7500	0.04283619
188	0x3d66646d	0.056248117
189	0x3d3ffb42	0.046870477
190	0x3cc62e78	0.02419208
191	0x3dd3bf1f	0.10339188
192	0x3e09826a	0.13428655
193	0x3e0a3c20	0.13499498
194	0xbd19128d	-0.037371207
195	0xbe1e3f38	-0.15453804
196	0x3ec5c8e0	0.38629818
197	0x3e46d861	0.1941848
198	0xbd826ac5	-0.06368021
199	0x3d752667	0.059851076
200	0x3d43a190	0.0477615
201	0xbd11f2b3	-0.035631847
202	0x3e182e8f	0.1486151
203	0x3e3b5bed	0.18296786
204	0x3e7c4079	0.2463397
205	0xbd6525ad	-0.055944134
206	0xbd3bb0a2	-0.045822747
207	0x3dc69bd1	0.09697688
208	0xbd586daf	-0.052838977
209	0x3d01c6f7	0.03168389
210	0x3dabd977	0.083910875
211	0x3e02ab9e	0.1276078
212	0xbebf121c	-0.37318504
213	0xbe3f20d1	-0.18664862
214	0x3d7180eb	0.058960836
215	0x3df6c6bc	0.12049624
216	0xbdae36a7	-0.08506518
217	0xbc7c127e	-0.015385268
218	0x3d8e2d6d	0.06942258
219	0xbd71ba99	-0.059015844
220	0xbe331b98	-0.17490995
221	0x3dc7016a	0.097170666
222	0xbc89b376	-0.016809206
223	0xbddda8ad	-0.10823188
224	0xbdc6a44f	-0.09699308
225	0xbc9dd1e0	-0.019265115
226	0x3debd20a	0.11514671
227	0x3e1be44c	0.15223807
228	0xbeec7ad4	-0.4618746
229	0xbe8f4461	-0.27981856
230	0x3c41fca2	0.0118400175
231	0x3dae8dd4	0.08523145
232	0xbda4f24f	-0.08054029
233	0x3de88c54	0.113548905
234	0x3d8e8186	0.069582984
235	0xbc1754d1	-0.00923653
236	0xbe410572	-0.18849733
237	0xbd461c82	-0.04836703
238	0xbd08a4cb	-0.033360284
239	0xbeca484d	-0.39508286
240	0x3d975d65	0.073908605
241	0x3b48b394	0.0030624615
242	0xbcb3453e	-0.021883603
243	0xbdf67904	-0.12034801
244	0x3e235960	0.15952063
245	0x3d0b0c7d	0.033947457
246	0xbd7920aa	-0.060822167
247	0x3d9a5f08	0.07537657
248	0x3d7527a4	0.059852257
249	0x3dc7c9b4	0.09755269
250	0x3cd9c863	0.02658481
251	0x3d9f03c3	0.07764389
252	0x3e258658	0.1616453
253	0xbc72f3cd	-0.014828634
254	0xbcf415ca	-0.029795546
255	0x3e18e93e	0.14932725

layers.0.bias f4 [64]
0	0x3bdbe977	0.006711181
1	0x3f049ea9	0.51804596
2	0x3e181a3f	0.14853762
3	0x3e33b714	0.17550308
4	0x3c2b10d6	0.010441026
5	0x3e19d64d	0.15023156
6	0xbe32525b	-0.17414229
7	0xbb99ec79	-0.004697379
8	0x3d768b57	0.06019148
9	0x3ecbbfc6	0.3979475
10	0xbd337fc5	-0.043823022
11	0xbdbcaf21	-0.09213091
12	0x3dc79755	0.09745661
13	0x3c24e560	0.010064453
14	0x3efd680e	0.4949345
15	0x3e1bbbaa	0.15208307
16	0x3ee308c0	0.44342613
17	0x3e0e16f1	0.13875939
18	0x3d01e12e	0.03170889
19	0x3e0bfc81	0.13670541
20	0x3e256163	0.16150431
21	0x3e5ff10c	0.21869296
22	0x3eb576e5	0.35442272
23	0x3dc6e2ac	0.09711203
24	0x3e768f03	0.24077992
25	0xbdcb5dd6	-0.09930007
26	0xbd60d656	-0.054891907
27	0x3edaea32	0.42756802
28	0x3eae8fb4	0.34094012
29	0xbd1da3fe	-0.038486473
30	0x3d8abd22	0.067743555
31	0xbdaf9abb	-0.08574434
32	0x3c8c17e2	0.017101232
33	0x3bb0ee3b	0.005399493
34	0x3d2d69f2	0.042337365
35	0xbd8a7b5a	-0.06761809
36	0x3dd5b6c2	0.10435249
37	0x3e3e5cd7	0.18590103
38	0x3e07430d	0.13209172
39	0xbbc338f1	-0.0059577157
40	0x3c1f6599	0.009728813
41	0x3ee9c7a7	0.45660135
42	0x3e1a98e0	0.1509738
43	0xbe266056	-0.16247687
44	0x3e2b939a	0.16755524
45	0x3becfcd6	0.007232289
46	0x3e2c7068	0.16839755
47	0x3d8c3335	0.068457045
48	0x3f109c08	0.56488085
49	0x3c73fbb2	0.014891552
50	0x3e1583ee	0.14601108
51	0x3eec6d42	0.46177107
52	0x3d6f6636	0.058447085
53	0x3e7323fb	0.23744194
54	0x3f24c5f7	0.6436457
55	0x3ed053ec	0.40689027
56	0xbd190b20	-0.037364125
57	0x3eddcace	0.4331879
58	0x3e8b60f1	0.27222398
59	0x3dd3ca64	0.10341337
60	0x3a9f2cb7	0.0012144063
61	0x3ce8d643	0.02842248
62	0x3e0d687b	0.13809387
63	0x3ebaf44f	0.36514518

layers.1.weight f4 [5, 64]
0	0x3e1b7b8a	0.15183845
1	0x3e01f997	0.12692867
2	0x3da9ba7c	0.08287522
3	0xbe25d966	-0.16196212
4	0x3e055aa8	0.13022864
5	0x3e41cd88	0.1892606
6	0x3c8fc684	0.017550714
7	0x3c3477cf	0.011014893
8	0x3d6da0ae	0.058014564
9	0xbe9564ab	-0.29178366
10	0x3dec17ec	0.11528
11	0xbc9c97c9	-0.019115346
12	0xbddceed0	-0.10787737
13	0xbb1f7fed	-0.0024337724
14	0xbf28e51d	-0.659746
15	0x3c5fe13f	0.013664543
16	0x3f00002e	0.50000274
17	0x3e42740e	0.18989584
18	0xbc469332	-0.012120055
19	0x3e230f12	0.15923718
20	0x3b8779fb	0.0041344143
21	0x3e4e4dc3	0.20146851
22	0x3e36cc2e	0.17851326
23	0xbe4cbace	-0.19993135
24	0xbe33389d	-0.17502065
25	0xbc76abac	-0.015055578
26	0x3e06f93b	0.13181011
27	0xbdf5aa86	-0.119954154
28	0xbe976b6b	-0.2957414
29	0x3bda5845	0.0066633546
30	0x3eb671a0	0.35633564
31	0x3d3a3e41	0.045469526
32	0x3df094b5	0.117471136
33	0x3dd0fc1b	0.10204335
34	0xbcb9ce3f	-0.022681354
35	0x3e1114b8	0.1416806
36	0xbe044704	-0.12917715
37	0x39ef1131	0.0004559844
38	0xbe78a320	-0.24280977
39	0xbdbc4c34	-0.09194222
40	0xbd551b56	-0.052028023
41	0x3dfa2d50	0.12215674
42	0x3d09dd0a	0.033658065
43	0xbdd82dcc	-0.1055561
44	0x3d7ea859	0.062172268
45	0x3ca282a7	0.01983769
46	0xbe18fa3e	-0.1493921
47	0x3e7232db	0.23652212
48	0xbebc7c2a	-0.3681348
49	0x3dd36b42	0.10323192
50	0xbd2fb14b	-0.04289369
51	0xbea98732	-0.33110958
52	0x3c9ea319	0.01936488
53	0x3e7a6b5c	0.24455017
54	0x3ebdf572	0.37101322
55	0x3c409ca8	0.0117561
56	0xbaa6eda9	-0.0012735623
57	0x3d6bdcfb	0.05758379
58	0x3eaab4b4	0.3334099
59	0x3dbc8698	0.09205359
60	0xbe0b8fa7	-0.13629018
61	0xbe57dbd5	-0.21079953
62	0x3d811d53	0.06304421
63	0x3d367d3e	0.044553034
64	0xbd373568	-0.044728667
65	0xbf0a66f0	-0.5406332
66	0x3e29bac8	0.16575158
67	0x3dadaa62	0.084797636
68	0xbd2e862e	-0.042608432
69	0xbe0f3d0a	-0.13988128
70	0x3debf56a	0.115214184
71	0xbe179476	-0.14802727
72	0x3cfb8c97	0.030706687
73	0xbe92e37f	-0.2868919
74	0x3d08a9e2	0.033365138
75	0x3de0e89a	0.10981865
76	0xbb45c952	-0.003017981
77	0xbde91cb6	-0.11382429
78	0x3ea8d8b6	0.32977837
79	0xbda90a22	-0.08253886
80	0xbd46212f	-0.04837149
81	0xbda41f92	-0.08013834
82	0xbe1bc167	-0.15210496
83	0x3dc02acb	0.09383162
84	0x3df81ae6	0.121145055
85	0xbe548465	-0.2075363
86	0x3e8b6737	0.27227184
87	0xbe1b0183	-0.15137295
88	0x3e21b730	0.15792537
89	0x3d6c356d	0.05766814
90	0x3e378996	0.17923579
91	0x3ed579db	0.4169453
92	0xbcfdfde7	-0.03100486
93	0x3b561372	0.00326654
94	0x3d01cc09	0.031688724
95	0xbbe6d623	-0.00704457
96	0x3d9a8449	0.07544763
97	0x3de7acaf	0.11312234
98	0xbdb312eb	-0.08743843
99	0x3da9575e	0.08268617
100	0x3e08e496	0.13368449
101	0xbdd5eafa	-0.10445209
102	0xbdc8bb72	-0.09801377
103	0x3dc86c60	0.09786296
104	0xbd251023	-0.040298592
105	0x3e7a70e0	0.24457121
106	0xbe2bedec	-0.16789979
107	0x3cb2769c	0.021785073
108	0xbdfaa243	-0.1223798
109	0xbcc65319	-0.024209546
110	0x3eb7ae52	0.35875183
111	0x3e028ffc	0.12750238
112	0xbd5c157a	-0.05373142
113	0xbe84c8a9	-0.25934342
114	0xbe0282e7	-0.12745248
115	0x3cdc68ba	0.026905406
116	0x3d0bf9d0	0.034173787
117	0xbdc1bb89	-0.094595976
118	0x3df7a0fd	0.12091253
119	0x3e2ea782	0.17056087
120	0x3e06a2b9	0.13148011
121	0xbf391656	-0.72299707
122	0xbed17b9d	-0.40914622
123	0xbdd52681	-0.10407735
124	0x3e4b64b0	0.19862628
125	0x3d18c5d4	0.03729804
126	0xbdbac823	-0.09120204
127	0x3e8b29c9	0.27180317
128	0x3d0beb85	0.034160156
129	0xbe87ec9f	-0.26547715
130	0xbd940a57	-0.07228535
131	0x3dcf4275	0.101200975
132	0x3cae1802	0.021251682
133	0xbdced8bd	-0.10099933
134	0x3cfd4ef0	0.03092143
135	0xbd097ebc	-0.03356813
136	0x3e1f2f59	0.15545405
137	0x3f1ff72f	0.6248655
138	0xbeb99876	-0.3624913
139	0xbd1313f0	-0.035907686
140	0x3d9734e5	0.07383136
141	0x3c49c42e	0.012314839
142	0x3a586ba6	0.0008255787
143	0x3d89c813	0.06727614
144	0xbe4f8230	-0.20264506
145	0x3db513eb	0.0884169
146	0xbcabc973	-0.020970082
147	0xbd8f7e16	-0.07006471
148	0x3dc8ac94	0.09798542
149	0xbdee464d	-0.116345026
150	0xbef0aaa7	-0.47005197
151	0x3d907801	0.07054139
152	0xbb6ed6d5	-0.0036443968
153	0xbcad824a	-0.02118029
154	0xbe140c3c	-0.14457792
155	0xbd7e5d0f	-0.062100466
156	0xbdd0940d	-0.101844884
157	0x3e6633bc	0.22480673
158	0xbd483794	-0.04888113
159	0xbd0c646e	-0.034275465
160	0x3d22f9c3	0.039788973
161	0xbd0553cd	-0.03255062
162	0x3dc8d173	0.09805574
163	0x3e07e9c7	0.13272773
164	0xbdccc8b4	-0.099992186
165	0x3df6b5ff	0.12046432
166	0x3da2df8d	0.07952795
167	0xbd255e8f	-0.04037338
168	0x3d46fdcb	0.04858188
169	0x3e743b37	0.23850714
170	0x3dff1c9e	0.1245663
171	0xbd2aefaa	-0.041732468
172	0xbd92e8f8	-0.071733415
173	0x3e2b3bcc	0.1672203
174	0xbd0e5cd2	-0.03475649
175	0xbe515cc1	-0.20445539
176	0xbd1d05b9	-0.038335536
177	0x3c882e44	0.016623624
178	0xbd69f23e	-0.057115786
179	0x3e82938d	0.25503197
180	0x3e117542	0.14204887
181	0x3e923202	0.28553778
182	0xbf36bac1	-0.71378714
183	0xbe820409	-0.25393704
184	0x3e4a5252	0.19757965
185	0x3e6b129a	0.22956315
186	0xbdcc866f	-0.09986579
187	0x3e095255	0.13410313
188	0xbe88e5bb	-0.2673777
189	0x3dbbf4b4	0.09177533
190	0xbdaa8dd5	-0.083278336
191	0x3d89546b	0.067055546
192	0x3b3378eb	0.0027385305
193	0x3ecbc670	0.39799833
194	0x3c601693	0.013677257
195	0xbdb57fba	-0.088622525
196	0x3d8215db	0.06351825
197	0x3e112a4d	0.14176293
198	0x3d02f6d9	0.031973694
199	0xbcc41cf2	-0.023939583
200	0xbe9dfc09	-0.3085635
201	0xbe66e3ad	-0.22547789
202	0x3cdd7899	0.027035045
203	0xbd2e11a4	-0.042497292
204	0x3d77da79	0.060511086
205	0x3b8f51b9	0.004373756
206	0x3d5afcba	0.053463675
207	0xbc25004c	-0.010070872
208	0xbecd68c2	-0.40118986
209	0xbe4a6a9a	-0.19767228
210	0x3e030311	0.12794138
211	0xbc5010de	-0.012699334
212	0xbe86ae40	-0.26304817
213	0x3d98be2a	0.07458146
214	0x3c649cd6	0.013953408
215	0x3e35ae4d	0.17742272
216	0x3df75066	0.12075882
217	0xbd2af18c	-0.041734263
218	0xbd9d9e64	-0.07696226
219	0xbec2e6f7	-0.38066837
220	0x3eebd890	0.46063662
221	0xbe14947f	-0.14509772
222	0xbe324d1e	-0.1741223
223	0x3cabcc5a	0.020971466
224	0x3da870fc	0.08224675
225	0xbd1f44f0	-0.038884103
226	0x3df23a7f	0.118275635
227	0xbe3124be	-0.17299172
228	0xbbc28128	-0.005935807
229	0x3ddce060	0.10784984
230	0x3e18a7de	0.14907786
231	0xbd045c7b	-0.03231476
232	0x3e2602d5	0.16212018
233	0xbf047706	-0.51744115
234	0xbcccfeb7	-0.025023801
235	0x3d4d474a	0.050116815
236	0x3e054134	0.13013154
237	0x3e02faed	0.12791033
238	0xbe4ed3a2	-0.20197919
239	0xbd381a81	-0.04494715
240	0x3d7fabe5	0.06241979
241	0xbd44b1c8	-0.048021108
242	0x3cc52c1b	0.024068883
243	0xbc6fd040	-0.014637053
244	0xbe2acc1f	-0.16679429
245	0xbee10488	-0.4394877
246	0x3e45e8eb	0.19327132
247	0x3e57033f	0.20997332
248	0xbe2244df	-0.15846585
249	0x3e589fb4	0.21154672
250	0xbe660474	-0.22462636
251	0xbca09cd8	-0.019606039
252	0x3e242961	0.1603141
253	0x3e249bac	0.16075009
254	0x3e7b1f2e	0.24523613
255	0xbead3dd6	-0.3383624

layers.1.bias f4 [5]
0	0x3c52936d	0.012852532
1	0xbdbffab1	-0.093739875
2	0x3dfa3f7a	0.122191384
3	0x3e2a8e63	0.16655879
4	0xbe39ed96	-0.18157038
