src/bread/algo/lineage/saved_models/best_model_with_fake_candid_thresh12_frame_num8_normalized_False.pth (torch, 19167 bytes, 4 tensors)

layers.0.weight f4 [64, 64]
00000000: 9213 6e3d 1355 75bd 5e88 ccbc 79aa 393e
00000010: 9abc b4be d30c f0bd bf44 18bd 72b3 563c
00000020: 04cc 4f3a b050 c2bd 63df a13d eecb 68bd
00000030: 15cb dabd 6486 c13d fca6 b33d fc29 96be
00000040: 571b 033e 09a1 0c3e 3c57 1abc 1d6d 46bd
00000050: aa33 cb3e 9c5c 563e 48af bcbd 4e6a 2c3e
00000060: 746a 8b3d 870d 43bd dd8c 5a3d 37a9 bd3d
00000070: 59a9 8c3e 791b 1fbe c302 023e 0c3c 1c3e
00000080: b9d9 323d acb0 9aba 5cee 59bd 2e42 be3d
00000090: 1b7d babd 0ef6 5b3d 27d9 683c 67a3 73bd
000000a0: e08d 5ebc 3b06 51bd 1208 3f3d 34e6 f93d
000000b0: 8165 b53c 06a5 91bc ea02 503d 6b98 53bd
000000c0: b694 273d 1716 e5bd d1c6 42be 18d7 bbbd
000000d0: 4fb5 5fbe 5225 3e3d 4c8f 063d 7b5c 983c
000000e0: 2502 23bb 631c b7bd b198 003d 4e90 dabd
000000f0: 5e2c 5fbd 21ae 17be 485d 54bd 9a87 9f3d
00000100: 5b4d dfbc 19eb b9bd 82e8 0f3d 9f0e 11be
00000110: 4ae5 1abe 46a0 12be cd17 3d3d d4f2 e7bc
00000120: 0844 573d aa14 33be c00c 46be d424 2cbe
00000130: 156b 1dbe 2df4 c2bc f0a2 9abc e97c 063e
00000140: e0a1 0abe 7b20 23be e78e 94bb 0503 f8bd
00000150: cd84 4c3b 582e c5bd 638a 053c e80e 24be
00000160: be58 03be 386a 05bd a503 38bd 8cdd d6bd
00000170: 0488 3eb9 6600 4f3c 037b 1fbe cb42 9a3a
00000180: 555a 743d 816c c8bd 0c52 aebd 102f 2abe
00000190: 4cb3 00be 5663 abbc 9fa4 89bd 5c29 13be
000001a0: b958 4ebd f95e 08be 3169 1ebe 8c7c fdbd
000001b0: abed 23be c634 e4bd b3e7 993d 9b93 41bd
000001c0: 9ef4 a8bc 123b 35be 068d 12be 6fff cfbd
000001d0: 6c60 2bbd b372 2dbe a250 e4bd 71c1 09be
000001e0: e164 73bd 46b2 d7bd 6a54 89bd 6dbe 11be
000001f0: 5a17 14be dd86 06be 9f74 cebd b740 87bd
00000200: c6a7 ab3d 3cd5 adbc 30f9 c63d 3178 5a3d
00000210: d98d 3cbe 3c12 a83d 31b1 a33c 2c8f a1bc
00000220: e76c ccbd eb3a c4bd 2a14 483d 3562 1bbd
00000230: e0eb 513d 99a8 98bd f120 d53d 9b3b 2dbe
00000240: c9ac a5bc 656c e5bd 8067 b13c 0240 483e
00000250: 80da b8be 125f abbe 11ef 113e c0b3 02be
00000260: a4ad 39be d2dd a5bd df4d 8f3d 574d 75be
00000270: 0b61 50be bc98 103e 6d58 8b3d d11b b0be
00000280: 18a6 0f3e b3ae 4d3e 8f43 b33d ac0e 33be
00000290: c9d8 103f 18ef 5d3e f447 0cbe 6506 413e
000002a0: 0aec 443e 7d53 2abd e272 903c 733f 193e
000002b0: 4b38 ba3e 6a12 f2bd 7c7e 91bd 9a6b 7d3e
000002c0: 2d4e 81bd 72bd 873d 7c64 953d 1499 04be
000002d0: 7cb0 313d 0b63 843d 1684 8a3c cf76 0bbd
000002e0: b11d 6f3d f7bf b83d 1584 863d d16c c0bc
000002f0: d20c 15bc b20c 843c 6430 ac3c 19cd 473c
00000300: 3864 0e3e b2e6 533e 8a0d 5aba b603 d4bd
00000310: 3517 e03e faa5 303e d448 a2bd cda5 953d
00000320: ddfd 223c 380a 68bd b80e 203e d6f8 473e
00000330: 9ba1 7f3e 9577 18be 2673 cebd 68d5 823e
00000340: 3a7b 3e3c d9bc 0abd 34e1 663d d91b a93d
00000350: 54cb 8fbe c428 12be aace ba3b aaae f63d
00000360: 4bba 16bd 7288 02bb fa1f 833d a378 99bd
00000370: d843 0abe fbd2 073e a660 16bc 5df8 70be
00000380: 3d8b d7bd 1453 0cbe cba2 aa3d ed06 1a3e
00000390: 4179 1abf 56d4 b3be 23be 023c 7478 fa3c
000003a0: e79a c2bd 209e 1b3e 01d5 563d 0b51 fdbd
000003b0: 5f75 97be 367c 083d 0468 0ebc fb79 ebbe
000003c0: eb61 c33d 9be2 893d c0b8 ea3a f436 e7bd
000003d0: 9ef9 7a3e 7545 1c3d 9863 dfbd 9dbd b83d
000003e0: 3ada 393d 3f9c 8c3d ec13 823a 285c e03b
000003f0: 218c 133e c86a d6bd 39c1 09bd 6895 523e
0.058124132 -0.059895586 -0.024967369 0.18131436 -0.35300142 -0.11721196 -0.037174936 0.0131043065
0.0007926824 -0.09488046 0.07903936 -0.056835108 -0.10683266 0.09449461 0.08772084 -0.29328907
0.12803398 0.13733305 -0.009420212 -0.048443902 0.39687854 0.20933765 -0.0921312 0.16837427
0.06807414 -0.047620323 0.053356994 0.09260791 0.27472952 -0.15537824 0.12696366 0.15257281
0.043664668 -0.001180192 -0.053205833 0.092899665 -0.09105893 0.053701453 0.014211929 -0.059482004
-0.01358363 -0.051031332 0.046638556 0.12202111 0.022143127 -0.017778885 0.05078403 -0.05165903
0.040913306 -0.11185854 -0.19021155 -0.09171885 -0.21846507 0.04642231 0.032851502 0.018598786
-0.0024873104 -0.08940961 0.031395618 -0.10672055 -0.05448567 -0.14812519 -0.051846772 0.07789536
-0.027258566 -0.090780444 0.035133846 -0.14165734 -0.1512653 -0.14318952 0.046165276 -0.028314032
0.052555114 -0.17488351 -0.19340801 -0.16810924 -0.1537288 -0.023798073 -0.018876523 0.13133587
-0.13538313 -0.15930359 -0.004533637 -0.12109951 0.0031207085 -0.0962798 0.00815067 -0.16021311
-0.12826821 -0.032572 -0.04492535 -0.104914755 -0.00018170482 0.012634372 -0.15574269 0.0011769173
0.05965646 -0.097863205 -0.08511743 -0.16619515 -0.12568396 -0.02092139 -0.06720852 -0.14371246
-0.05037758 -0.13317479 -0.15469815 -0.12377271 -0.16008632 -0.11142878 0.07514896 -0.04725991
-0.020624455 -0.17698315 -0.14311609 -0.10156142 -0.041840002 -0.16938286 -0.11148192 -0.13452698
-0.059422377 -0.1053205 -0.06705554 -0.14232798 -0.14462033 -0.13137384 -0.100808375 -0.0660414
0.083816096 -0.021219842 0.097154975 0.05333728 -0.18413486 0.08206603 0.019981952 -0.01972159
-0.09981709 -0.0958155 0.048847355 -0.037935454 0.05125034 -0.074540325 0.10406674 -0.16917269
-0.020223992 -0.11202315 0.021655798 0.19555667 -0.36104202 -0.3347097 0.14251353 -0.12763882
-0.18132645 -0.080989495 0.069972746 -0.23955284 -0.20349519 0.14120764 0.06803975 -0.34396222
0.14028203 0.20086174 0.0875312 -0.17486066 0.5658079 0.21673238 -0.13699323 0.18850096
0.19230667 -0.041583527 0.017632905 0.1496561 0.36371073 -0.118199185 -0.07104203 0.24748078
-0.06313739 0.06627931 0.072945565 -0.1294902 0.0433812 0.064642034 0.016908687 -0.03404885
0.058377925 0.090209894 0.065681614 -0.023489388 -0.009097295 0.016119335 0.021019168 0.012194895
0.13905418 0.20693472 -0.00083180575 -0.1035227 0.43767706 0.17250815 -0.07924047 0.073070146
0.009948221 -0.05665037 0.15630615 0.19528517 0.24963991 -0.14889367 -0.100805566 0.2555344
0.011626059 -0.033871505 0.056367114 0.08257265 -0.28084815 -0.14273363 0.005700906 0.12045033
-0.036798757 -0.0019917754 0.064025834 -0.07493713 -0.13502443 0.13264076 -0.009178316 -0.23532243
-0.105246045 -0.13703567 0.083318315 0.15041704 -0.6034127 -0.35122937 0.007979902 0.030575015
-0.095022015 0.15197039 0.05244923 -0.12368973 -0.29581735 0.03332158 -0.008691791 -0.459915
0.09540161 0.06732675 0.0017907843 -0.11289778 0.24509284 0.038152177 -0.10907668 0.09020541
0.045374133 0.06865739 0.000992415 0.0068469234 0.14408924 -0.10469586 -0.033631537 0.20564806

layers.0.bias f4 [64]
00000000: 05ab afbc 588b fb3c 92d5 e13d e51f dd3d
00000010: 1621 123d e191 2f3e 85de c63d be35 6b3e
00000020: 87d6 98bd c042 a43e 3c08 f8bd d77b 0dbe
00000030: 545e fa3b 1267 363c 7ebc 843e 7c62 153e
00000040: 32ae a2bd 0243 9eba 4b00 d7bd a7bb ae3d
00000050: 76b4 c93c 7a23 043e 62dd 53bc 36a1 f33d
00000060: 6fdc 3a3e 6bb2 c4bd b296 23be b390 9f3e
00000070: 2793 e23e 2694 04bd 1a6f aabd ed3d cdbd
00000080: 7f7f 0fbe 7867 83bd dfc4 9b3e c5fc 02be
00000090: 1461 393c e7d9 ba3d ea2f e9bd c448 56bd
000000a0: ddd4 4ebd 48af db3a 91a0 893b 033a e9bd
000000b0: a653 573e bf05 1fbe f91a 6d3d eeaf 0a3e
000000c0: b062 9c3d cfe9 78bd c862 043e 1987 9d3a
000000d0: ec74 11be 09ae 283e 6e5e da3e cdf9 c03e
000000e0: adc2 4cbe c026 1abd 4883 803e 0a57 383e
000000f0: a6eb d8bd 4643 8d3d 4f34 333e a059 ff3d
-0.021443853 0.030706093 0.110270634 0.10797099 0.035676084 0.17145492 0.09710411 0.2296972
-0.07462793 0.32082176 -0.121109456 -0.13816772 0.0076406393 0.011132972 0.25925058 0.1458835
-0.07943381 -0.0012074413 -0.10498103 0.085318856 0.024622183 0.12904158 -0.0129312 0.11895983
0.18248151 -0.09604343 -0.15975454 0.31165084 0.44252893 -0.032367848 -0.08321972 -0.10021577
-0.1401348 -0.064162195 0.30423638 -0.12791736 0.011314649 0.09123593 -0.11386092 -0.05231549
-0.05049597 0.0016760612 0.004200049 -0.11388018 0.21028003 -0.15529536 0.05788705 0.13543674
0.07636011 -0.060769852 0.12928307 0.0012018412 -0.14204758 0.16472639 0.4265017 0.37690583
-0.19996138 -0.03763461 0.2510016 0.18001953 -0.10591821 0.06897597 0.17500423 0.124682665

layers.1.weight f4 [4, 64]
00000000: bf5c aa3d df0c 16bb 49da 693d e3f9 2ebe
00000010: 33bd e83d b203 523e 4285 c93c 0735 a43e
00000020: dd5f 5d3e ae5c afbe b47a 72bb f753 4fbd
00000030: ac5c 8ebe 43ca 293d f498 88be f630 953c
00000040: 162d 913c 201b 433e 6aed 8ebd efec db3d
00000050: c6c8 1bbd 68b7 453e 6df5 6a3e a7c2 2fbe
00000060: 48d5 2dbe 1393 2dbc e23d 6a3e 5155 9abe
00000070: f30d a7be 369c 0ebd 63a2 953d 98a1 843c
00000080: d9b5 a53d 1a83 aa3d d0c7 a3be f390 893e
00000090: faea bebd 5be3 85bd 9c29 1dbe df36 00be
000000a0: 7ade 23be 207c 11be 0f15 163c fcf9 72be
000000b0: 052d 993d 95c6 1a3d 5a6c 02be 5f85 8cbd
000000c0: f210 98bd 15e9 b23d d816 debd 80b9 edbd
000000d0: b0ba 0fbd 1f41 eb3e 316b 053f b75b 4ebe
000000e0: 0a7d 8f3e b6b4 01be 09c2 e33e ff66 ebbc
000000f0: 5ffa 14be 0e50 61be cd4d ed3c 8d44 c7bd
00000100: 5ede 18be cd4c 1dbd b16b 683e b518 483d
00000110: 54ca 36be aad1 47be 286f 673e ff9b 86be
00000120: a2e7 313c 3615 a0be 7ef1 a33d c8ea fb3d
00000130: 005d 653d 004d 5ebe 5eb3 d83e 5708 a9be
00000140: 505d a73b e9eb 9dbd 2462 04be d8c7 373d
00000150: f5ab 163e 239a 28be b3c5 b03d a753 1abe
00000160: cff2 223e 98d0 443d 847a 483e 6581 9f3e
00000170: 3dfd 94be 7619 62bd 32f2 223d 8bff 1cbe
00000180: 7969 333d 35b7 1b3d e9f8 b8be 9c9f fc3d
00000190: 2949 583e a2fc 36be 420a 8ebd 2328 103e
000001a0: ba29 0dbd 09f2 d53d 79a6 1cbe 8d02 3f3e
000001b0: 012f 52be 04bf 02bd 300a 903e d122 cb3e
000001c0: 58c8 603d 3d4d 84be d6f1 d6bd 3d32 833c
000001d0: f3ab 253e fe53 6abe 8923 dbbd 412b cb3e
000001e0: 25ad fabd e5cd 90be 8d96 8fbe e2a1 0bbe
000001f0: 0344 1a3e 18de a23c 85e1 e7bd a2a9 9a3e
00000200: 0bea 0e3d d215 48bb 08ba 44be 83bc 213e
00000210: 8998 af3d 4010 17be 1687 2a3d b967 39be
00000220: 02a7 b53d d547 e43e e173 94be d6e3 81bc
00000230: dfd3 203e f14b dabc 2fd0 6cbe 19f9 8a3d
00000240: 1b58 23bc fee2 053e 7bfa a2ba 93a4 8c3d
00000250: f16c 243e 691f 77be f264 acbd 286c b03d
00000260: b4fe 213d 4043 9fbc 3306 99be 2c22 53be
00000270: 5603 ddbe c50a 963e 7a95 95bc afef 9ebb
00000280: 473e ed3d 0887 b6bd ee4b 073f 0cd6 73bc
00000290: 6823 9bbe d280 8f3e 7a4f dc3d b5df 99bd
000002a0: 12a5 843d 98ba 763e bd40 fd3d 1aa3 6abe
000002b0: c0b4 3ebe 18fa 6b3e 8de4 b4bc 6702 4dbe
000002c0: 52a0 bbbe 349a 45bd 37dc 8dbd 361d 57bd
000002d0: 7340 1a3e 049d 17be 7f39 59be eee5 24be
000002e0: 98c1 d63d 60ef 0d3e 4ea2 9ebe 5284 3d3e
000002f0: 9be4 a0be 12d3 573d fc78 4dbe e2c6 463d
00000300: 36c2 973d fbcb ecbb de91 ac3c 06cf cbbd
00000310: be6a a53d 5398 0d3e 01ea 56be f491 7abe
00000320: 4068 9dbe 1022 afbe 8425 f33c fbf1 d9bc
00000330: d40f c4bc 77bf 83bc f3ac 38be e718 e73d
00000340: c091 313b 1d5b 8ebe 7235 15bc dd61 12be
00000350: d5a2 88be 832f 053d c5e2 5bbe 620e 123e
00000360: 9c8b da3d cff1 38be cb0c f5bd 59e0 96be
00000370: 43d9 263f 756a 07be a2fe 373c bbfc 39bc
00000380: 9c41 943d de18 7ebd d6a6 5ebe 033a a7be
00000390: 59e7 d5bd d64c e43c 30c7 08bd d208 97bd
000003a0: 9d2a 303e b97c 0dbe 8596 d8bd 5c5a 823d
000003b0: 583f 5c3e 3df4 0d3d 2825 0dbe 26cb 30be
000003c0: 58c8 00be e938 bbbd cd83 8abc f565 56bd
000003d0: 7ba4 94be 8be6 38be 2f38 5ebe 67e8 28be
000003e0: fa82 37be 8e51 8a3e 0afc 8fbe 040b fb3a
000003f0: 7e59 363e 973d 403e 02e0 863e 6c19 05be
0.08318471 -0.0022895855 0.05709294 -0.17087512 0.11364212 0.20509222 0.024599675 0.32071707
0.216186 -0.34250396 -0.0036999406 -0.050617184 -0.27805078 0.041452657 -0.26679194 0.018211823
0.017721694 0.19053316 -0.06978877 0.10738551 -0.03803327 0.19308245 0.22945185 -0.17164098
-0.16975892 -0.010594147 0.22875169 -0.30143216 -0.3262783 -0.034816943 0.073063634 0.016190335
0.08091325 0.08325787 -0.31988382 0.268684 -0.09322162 -0.06537505 -0.15347904 -0.12520932
-0.16002837 -0.14207506 0.009160294 -0.23728174 0.0747929 0.03778704 -0.12736645 -0.06861376
-0.07425107 0.08735863 -0.10844201 -0.11607647 -0.03509015 0.4594812 0.52116686 -0.20152174
0.28025085 -0.12666592 0.44483975 -0.028735636 -0.14548634 -0.22003195 0.028967762 -0.09729872
-0.14928576 -0.03840332 0.22697331 0.048851687 -0.1785062 -0.19513574 0.22600996 -0.2629089
0.010858448 -0.31266183 0.08005045 0.1230064 0.055996895 -0.2170906 0.42324346 -0.33014175
0.0051075593 -0.07711012 -0.12928063 0.04486832 0.14714034 -0.16465048 0.08631458 -0.15070973
0.15912937 0.048050493 0.19577986 0.31153408 -0.29099455 -0.055200063 0.039781757 -0.15331857
0.04380176 0.038016517 -0.36127403 0.123351306 0.21121658 -0.1786981 -0.0693555 0.14077811
-0.03446362 0.10446555 -0.1529788 0.18653317 -0.20525743 -0.031920448 0.28132772 0.39675
0.054878563 -0.25840178 -0.10495345 0.016015166 0.16178875 -0.22883603 -0.10700137 0.39681438
-0.12240056 -0.28282085 -0.2804455 -0.13635972 0.15065007 0.019881293 -0.11322311 0.30207545
0.03489117 -0.0030530584 -0.1921159 0.15794568 0.08574016 -0.14752293 0.041632734 -0.18105973
0.08869745 0.44586053 -0.2899466 -0.015855711 0.15705822 -0.02664754 -0.2312629 0.06785793
-0.009969736 0.13074872 -0.0012434268 0.068673275 0.16057183 -0.24133076 -0.08417691 0.08614379
0.039549544 -0.019441247 -0.29887542 -0.20618504 -0.43166608 0.29305092 -0.018259753 -0.00485035
0.11584144 -0.08912474 0.52850235 -0.014882576 -0.3030045 0.2802797 0.107573465 -0.07513372
0.06476797 0.24094617 0.123658635 -0.22913781 -0.18623638 0.23044622 -0.022081638 -0.20020448
-0.36645752 -0.048242763 -0.06926768 -0.052518092 0.15063648 -0.1480599 -0.2121334 -0.16103336
0.10486144 0.13860846 -0.30983204 0.18507507 -0.31424412 0.052691527 -0.20065683 0.048529513
0.0741009 -0.007226465 0.021065649 -0.09951596 0.08077 0.13827638 -0.20987703 -0.24469739
-0.307436 -0.34205675 0.029680975 -0.026604643 -0.023933329 -0.016082508 -0.18034725 0.112840466
0.002709493 -0.2780389 -0.009106981 -0.14295144 -0.2668673 0.032516014 -0.21473224 0.14263299
0.106711596 -0.18060993 -0.11965331 -0.2946804 0.65175265 -0.13224204 0.011230143 -0.01135176
0.072390765 -0.062035434 -0.2174333 -0.32661447 -0.10444517 0.02786867 -0.033393085 -0.07374729
0.17203756 -0.13817109 -0.10575584 0.06364891 0.21508539 0.034656752 -0.13783705 -0.17264995
-0.12576425 -0.09141714 -0.01690855 -0.052343328 -0.2903174 -0.18056695 -0.2170112 -0.16494904
-0.17921057 0.27015346 -0.28121978 0.0019153063 0.17807576 0.18773495 0.2634278 -0.12997979

layers.1.bias f4 [4]
00000000: 9cfc 043d 07f2 26be eccd 7fbd dbc4 c93d
0.03246747 -0.16303264 -0.06245224 0.09852
