src/bread/algo/lineage/saved_models/bst_nn_all_4frames_10features_and_division_age_[44,64,5].pth (torch, 14303 bytes, 4 tensors)

layers.0.weight f4 [64, 44]
00000000: 4505 cebd d1ca 3bbe 0e55 3bbe a599 6a3d
00000010: 12f5 01be 49b6 acbd 21fc 8f3d 0e33 49bd
00000020: d070 1f3e 6727 013d 12ee abbd ad26 13be
00000030: 8e00 4cbe a50c b9bd 5110 3cbe d50d f1bd
00000040: 5f57 1abe 9541 2abe ee7d 00bd d3e6 f9bc
00000050: d9de 20be 6614 56bd 2559 61bd e3c8 ce3b
00000060: ed69 813d 1b91 7d3d 65ef 583a b406 2fbe
00000070: df02 9b3c d69d 1d3b 71cb 853c 58dc 23be
00000080: 99a4 05be fa12 66be cb1a 113d 7ab8 1d3d
00000090: 406d 12be c66f 80bd d296 583d b1ab aebc
000000a0: 87bf a43d c41a 29bc 9fe9 02be cad2 6ebd
000000b0: 10cd 1abd c6fa 87bd 1c7a bbbe dd3c 94be
000000c0: 3415 f5bc b1bf de3e c7ef 05be f571 653e
000000d0: 9dd0 683f 3e4d dd3e d700 aebe 2271 703d
000000e0: d894 43be d83f 7cbd 0fc9 a6bd 354a 0b3e
000000f0: 9867 843d 3e54 033f 9ea8 c93e 259a bcbe
00000100: 3b89 db3c c6b9 19bd ab1f c23c bec6 10be
00000110: b866 6bbd e762 c9bd 192f 923d 64f5 6c3f
00000120: ddaf 103f a48c e53e 8f33 3d3f 2eef 3a3f
00000130: 3ae1 3abe 8be4 07be 23a1 7cbe 61c7 113d
00000140: 8cc5 19be cb7c 8f3e 3cae 07bf 3441 a9bf
00000150: 0417 523e 0ce1 4fbf 6a12 82be 7a5b 16bd
00000160: 8c1b aabc f68e c73c fcf9 96bd cc86 28be
00000170: 8377 40be a793 fc3e dd6e 673d aa63 1a3f
00000180: 1db5 3cbd 3dbc 043f b1c5 c2be db43 7ebd
00000190: aaed b0ba 28de 63be cb6c a7be 735d 60be
000001a0: de61 a43e c3ed 913e 58d1 013f f82f 373e
000001b0: 7bd4 363f 08b0 d3be 2cd7 e1be b954 84be
000001c0: e66f 703d 4a0d 2d3e 0152 4e3e 776b 2f3f
000001d0: a1f2 983d 7f3c de3e a464 ffbe 2847 793e
000001e0: d308 f13b b7f4 7c3d 3d2c 033d 1511 02be
000001f0: 3533 24bd 12d8 d43c 0f15 0d3f d469 c73e
00000200: 084a 3f3f e3f7 40be d60f 1e3f 0f2a 68be
00000210: ae3e fdbd fe71 88be c270 5e3e 66eb 713e
00000220: e47b 85bc f46c 11bf 5d99 bdbf 05ba 59bd
00000230: ff93 d5bf e1b2 6abf 557e cebd 0e18 01bf
00000240: 6efe bbbe d5ac 48bf 600f 3fbf 8a23 a6bf
00000250: 8656 b73e 1c97 1c40 a486 8bbf cf92 a440
00000260: 0276 3e3f 400d 2d3e a5ff c3be 1779 92be
00000270: 30b7 323e e217 0c3e 80c7 93bd a8b2 81be
00000280: 7ca3 f4bf bf8a e1be 7191 15c0 4b98 a5bf
00000290: 229b 0ebe 72d7 04be fc60 92be 6437 003f
000002a0: 7561 d43e ad2e 44be 8443 c5bc 2553 82bf
000002b0: 94c7 693d 20c2 0ec0 4624 83bf 2c2d d4bd
000002c0: 765a e3bd 63c4 6abd 2b1e 883c 505a 0ebd
000002d0: 4661 1ebe 3118 36be ca89 46be 3b5d 4e3d
000002e0: a1f2 debc 2b88 c53d 61ed 43be e7e0 edbc
000002f0: b907 18be a109 d6bb 15cd 433d 3f12 443e
00000300: fe60 b1bd c666 a0bd 8686 c63d 76de 3dbe
00000310: 96b3 3dbe 0fcb 06be fb67 bcbd f208 43be
00000320: 25b6 c8bb 0751 a63d 931e 45be 7753 4bbe
00000330: 739a 0cbd 28ed da3b 278a 423e d400 9cbd
00000340: 8cbc 3abe 0206 bdbd 5c56 3b3d abb1 cebc
00000350: de80 9d3d 7841 cabd d7b3 f9bc 589b 203c
00000360: 8d1d 30be 4209 c43c 6f45 c23d c97c f1bd
00000370: 4661 81bd ac49 8fba d73f 813d 532b 943d
00000380: 4e73 033d 7adb 65be 50cb acbd df35 99bd
00000390: 0534 e1bd 4903 e7bd 0ffd 4ebe a0df 15bd
000003a0: ffa0 eb3c 1648 0cbe 97dc eb3c 1be5 e2bc
000003b0: 99eb dfbd 12fc b0bd 3d82 ecbd 942f d1bd
000003c0: 8808 2ebe c665 20be aba2 7a3c 0332 21bd
000003d0: 0223 3ebb 2b12 dbbd 2d4a 4bbe 4489 36bc
000003e0: 7942 273d ccf6 7e3c 478a d73b 6ed2 58bd
000003f0: a124 37bd 4cec a1bc 7edf 323d 50ae 04be
-0.10059599 -0.18339087 -0.18294165 0.057275433 -0.12691143 -0.08433206 0.07030512 -0.049120955
0.15570378 0.031531718 -0.08395018 -0.14370222 -0.19922087 -0.09035615 -0.18365599 -0.117702164
-0.15072392 -0.1662658 -0.031370096 -0.030505573 -0.1571001 -0.052265547 -0.055016655 0.0063105687
0.06319032 0.06190596 0.00082754187 -0.17092401 0.018922267 0.0024050376 0.01633236 -0.16002023
-0.1305107 -0.22468176 0.035425942 0.03850601 -0.14299488 -0.06271319 0.05287821 -0.021322103
0.080443434 -0.010321323 -0.12784432 -0.058306493 -0.03779322 -0.06639628 -0.366166 -0.28952685
-0.029917337 0.43505624 -0.13079749 0.22406752 0.9094332 0.43222994 -0.33985016 0.05870164
-0.19099748 -0.061584324 -0.08143818 0.13602526 0.064650714 0.5130042 0.39386457 -0.36836353
0.026798835 -0.037530683 0.023696741 -0.14138314 -0.057471007 -0.09833317 0.071378894 0.92561936
0.56518346 0.44833863 0.739068 0.7302121 -0.1824998 -0.13270776 -0.24670844 0.035590533
-0.15016764 0.28024897 -0.53000236 -1.3223023 0.20516592 -0.8120277 -0.25404674 -0.036708333
-0.020765088 0.024360161 -0.073718995 -0.16457671 -0.1879559 0.493314 0.05650221 0.60308325
-0.04607116 0.5184973 -0.38041452 -0.06207643 -0.0013498564 -0.22252715 -0.3270019 -0.21910648
0.32105917 0.2850171 0.5071006 0.17889392 0.7141797 -0.4134524 -0.44109476 -0.25845888
0.058700465 0.168996 0.2014847 0.68523353 0.07468153 0.4340553 -0.4988147 0.2434355
0.0073557883 0.061756816 0.03202461 -0.12701829 -0.040087897 0.025981937 0.5511026 0.38947928
0.7472234 -0.18844561 0.61742914 -0.22672294 -0.12365471 -0.2664947 0.21722701 0.23624954
-0.016294427 -0.56806874 -1.4812428 -0.053155918 -1.668579 -0.916792 -0.1008269 -0.5042733
-0.36717552 -0.7838872 -0.74632835 -1.2979596 0.358082 2.446723 -1.0900464 5.142921
0.74398816 0.16899586 -0.3828098 -0.2860801 0.17452693 0.13680986 -0.07215786 -0.25331616
-1.9112391 -0.44051167 -2.337002 -1.2937101 -0.13926366 -0.12972811 -0.28589618 0.5008452
0.41480604 -0.1915843 -0.024080046 -1.0181624 0.0570751 -2.2305984 -1.0245445 -0.10360178
-0.111012384 -0.057316195 0.016615948 -0.034754097 -0.15466794 -0.17782666 -0.193885 0.05038188
-0.027215304 0.096451126 -0.19133522 -0.029037906 -0.14846696 -0.0065319096 0.047803003 0.19147585
-0.08661078 -0.078321025 0.09693627 -0.18541893 -0.18525538 -0.13163398 -0.0919952 -0.19046381
-0.006125229 0.081209235 -0.19249944 -0.19856058 -0.03432698 0.0066811033 0.18998013 -0.076173455
-0.18235987 -0.092296615 0.045736656 -0.025231203 0.07690595 -0.098757684 -0.030481262 0.009802662
-0.17198773 0.023930196 0.094859 -0.11791379 -0.063173816 -0.001093199 0.063110046 0.07234826
0.032092385 -0.22447005 -0.08437216 -0.07480978 -0.1099625 -0.112799235 -0.20213722 -0.03659022
0.028763292 -0.13699374 0.028791709 -0.027697137 -0.109336086 -0.086418286 -0.115482785 -0.10214153
-0.16995442 -0.15663823 0.015297572 -0.039354336 -0.0029012566 -0.10696825 -0.19852515 -0.011141125
0.040834878 0.015561771 0.0065777632 -0.052935056 -0.044712666 -0.019765995 0.04367017 -0.1295712

layers.0.bias f4 [64]
00000000: 500d 3ebe 2af4 ec3e d8b9 1d3f 5d82 8bbe
00000010: dd06 30be 2983 b1bc efa4 223e ed06 f1be
00000020: 96e1 ab3b 47e7 cc3d 03ca 353d 4718 8c3e
00000030: 31dc cdbe 1211 0abe d26c 67bf 436b 0bbd
00000040: 3524 87be a66c c73f 08c0 80bd 6bc5 013f
00000050: dbf9 243f 92b7 bd3d 2f58 0ebf 8ef9 58be
00000060: fcae 8c3e c8ef 953f 4c64 243f 662e 63be
00000070: 568e 0fbe ba50 563c cb5e 4f3d 1d72 01bf
00000080: 02df a1be afe1 c4bb 4fa4 3c3f d00d 1bbe
00000090: 3dd4 bd3e 75e7 723d d279 45be 6cd1 22be
000000a0: 745e 89bd 51f4 cabd 3183 893b ea97 993e
000000b0: 781f 9a3d 41c7 fbbd 7e5c 723f d720 e1be
000000c0: 22d3 df3e dea5 68be a60d 95bd 28ef 623e
000000d0: f309 21be 136f 283e f04b 1ebe 5390 86be
000000e0: 9945 c43d afbe 94be 1baf 9dbe 3da6 8cbe
000000f0: f247 2cbe 8733 753f af4e afbc e7f9 903e
-0.18559766 0.46280032 0.616117 -0.27247897 -0.17190118 -0.021668987 0.1588323 -0.47075596
0.005245398 0.1000505 0.044382107 0.27362272 -0.40207055 -0.13483074 -0.9040042 -0.03403784
-0.2639481 1.5580032 -0.06286627 0.5069186 0.6444375 0.09263529 -0.5560331 -0.21188948
0.27477252 1.17138 0.6421554 -0.22185668 -0.1401914 0.01308077 0.05062751 -0.5056475
-0.31615454 -0.006008349 0.73688215 -0.15141988 0.37075987 0.059302766 -0.19284752 -0.159002
-0.06707469 -0.09909881 0.0041965474 0.29998714 0.075255334 -0.12293864 0.9467238 -0.43970367
0.4371577 -0.22719523 -0.07277994 0.22161543 -0.15726452 0.16448621 -0.15458655 -0.26281986
0.09583587 -0.2905173 -0.30797657 -0.2747058 -0.1682432 0.9578175 -0.021399824 0.2831566

layers.1.weight f4 [5, 64]
00000000: 8d25 6fbb 2440 823d 4f25 ccbd 798b 123e
00000010: ab4d 6d3b 01c1 883d 4482 20be b951 833d
00000020: ed6f c73d bed5 dfbd ceec b6bc 80af c83d
00000030: ff4e 423d b6e4 943d d219 f4bb b1ab 41bd
00000040: 44a5 aabc 149e b53c 3595 febb 4653 b3bd
00000050: 02e1 883c 9793 853b c88f c03c f901 a1bd
00000060: b2e2 ed3d 31a6 03bd 1100 54bd 9573 a53d
00000070: e8f2 ca3d 44ed 20be 1797 7ebd 3588 73bd
00000080: 007b bd3d ce60 de3d dac9 ccbd 67f1 d7bd
00000090: 03e1 06bd effc 72bd 17d0 b1bb b895 84bb
000000a0: 020b ef3c 3ec9 c83d deec 28be 5e33 803e
000000b0: af54 35bd 67ed b3bd 930d 9f3d 41e7 bfbc
000000c0: 6ff2 c53d 131e 4d3b 0cff 85bd 0e7c 073d
000000d0: 3fc2 e4bc a2db 37bd c6cb acbd eb23 533d
000000e0: 85c1 153d 7d9b d33d 7303 063d 9ff1 223d
000000f0: cfff 92bd 3228 5cbe e985 a03d ce17 413d
00000100: 94a3 b1bd a126 5dbc ee6c 723d 095f c9bd
00000110: 3e44 023d 73fe adbc fee8 753e f20c 3dbc
00000120: d21e f7ba 2ec6 8d3d f6ec 8fbd 32a6 94bd
00000130: cf58 873d dfc5 8d3d dcf0 a2bc 9b8b d2bc
00000140: ad69 d0bd 6d9a 3cbe 1458 193d abfe a3bd
00000150: b750 c33d ec64 803d 8486 353c 9835 a9bd
00000160: ab89 253c 2fa2 a2bd 8c45 78bd bfef 7f3d
00000170: 467e 81bb 82b1 25be c550 703d 05f3 a1bc
00000180: 025b 9e3d 8ba1 053c e879 033e 60cd ecbc
00000190: ffc1 d9bb ab1a 92bd d2ff ce3c b48b 1bbd
000001a0: 9988 e13d bfe5 9a3d 837f 7c3d dc5d d0bd
000001b0: a87e 81bd 386b b53d 0441 6b3d c6a5 c9bb
000001c0: f3cd 433c cb7b fabc 5643 c83d 00bf 103c
000001d0: bdc7 1dbd c60e f1bb 961a dcbd 155a 913d
000001e0: 1c59 033d 3dd9 bc3d 6286 383d 47b1 a8bd
000001f0: 580e 013d 3336 063e 6426 ce3c 2987 e53c
00000200: d883 28be 0a9e edbd f340 e93d 21e2 373e
00000210: 1933 82bc 0e55 5c3d 70b7 25be 7f41 5ebe
00000220: 9183 623d 3b0d f3bd d576 e0bc c894 26be
00000230: 4ce8 e8bb aa1c 083d 5c5f afbc 837b 6a3c
00000240: ac49 0dbe da22 b23c c1e6 563a fb05 3d3e
00000250: 90fa 623d 58d5 9bbd a93a 1abe dffc 2abe
00000260: 5c79 663d b747 cfbd c558 0dbe 8b35 95bc
00000270: be73 3d3a fd02 18be 5d0c 98bc f070 133d
00000280: 4dbe 7ebb 134d f4bb 622b ebbd 2cf9 f73c
00000290: 1377 473d 7c93 3e3e e28c 95bd 0405 383c
000002a0: 50a2 8b3d 5225 803d c376 c13d ba2d a4bd
000002b0: 28cc af3d 7400 58ba eb78 893d 69aa 2e3c
000002c0: bd04 dabd f5ca e83d 5a60 ce3d cec3 cd3d
000002d0: accc db3d 52af 963c 2942 853d 5469 c03d
000002e0: d5d0 003d 58fa 813d f014 1bbe 01c7 86bc
000002f0: 7d01 2abd 9433 d13d cfeb 4f3e 7b26 f03d
00000300: 7fc9 62bd 4195 93bd 6a2f f9bc 5307 0e3e
00000310: 6ad5 8c3d 51ea 8f3d 229a 24be 282a 8039
00000320: 4b96 8c3d 9c0d e4bc 3a2f c7bd 9448 e8bd
00000330: c9d0 aebc d14f 9abd ae1a 24be 133b 063d
00000340: 781b d5bd 4d1b 023d ed14 2dba ad9f 22be
00000350: 998e 963d a62d 89bc e5c6 1a3d 38c4 43bd
00000360: f58b 0f3c 4e5c 623e 7034 a93d 46fd 193d
00000370: 3863 013e 7682 2c3e 3e7f 23bd 4344 a73d
00000380: eea1 af3d 1ebd fc3c 5002 cebd 6784 3bbc
00000390: a3e0 e4bc 54bf abbd 6c3f 0bbe 8e3f 9cbd
000003a0: dae0 843d dd4c fd3d 6f1c 853d 75d1 efbd
000003b0: da55 b7bd 27bc 2a3d e2a6 1dbe 2a5e e7bd
000003c0: b854 853d 0bb4 9a3c e1c6 163d 8c6e c23d
000003d0: 3d6a e8bb f589 a5bd 41e9 a0bd 2563 84be
000003e0: 721c 4dbc 57c9 80bd 8847 083c a226 75bd
000003f0: 159c d73c 7fff da3d 5f48 f73d 515e 083e
-0.0036490888 0.0635989 -0.099680535 0.14311017 0.0036209624 0.066774376 -0.15674692 0.06412072
0.09738145 -0.1092944 -0.022329714 0.09799099 0.047438618 0.07270186 -0.007449367 -0.04728288
-0.020830758 0.022170104 -0.0077692517 -0.087561175 0.016708855 0.004076432 0.02350606 -0.078617044
0.11615504 -0.032140914 -0.051757876 0.08078686 0.09909612 -0.1571551 -0.06215581 -0.05945607
0.09251976 0.10858308 -0.09999438 -0.10544091 -0.03292943 -0.059323248 -0.0054264176 -0.004046168
0.029180054 0.09804009 -0.16496608 0.2503919 -0.044270214 -0.08785515 0.07766261 -0.0234257
0.09665381 0.0031298443 -0.06542787 0.033077292 -0.027924655 -0.044887193 -0.08437304 0.051547926
0.036561508 0.103323914 0.032718133 0.03978121 -0.07177698 -0.21499708 0.07838041 0.047141843
-0.08673778 -0.013497979 0.059185915 -0.0983258 0.031803362 -0.021239495 0.2401466 -0.011538731
-0.001885379 0.069225654 -0.070276186 -0.07258262 0.06608736 0.069225065 -0.019890241 -0.025701335
-0.10176406 -0.18418284 0.037437513 -0.080075584 0.095368795 0.06269249 0.011079434 -0.08262175
0.010103623 -0.0794109 -0.0606132 0.0624845 -0.0039518205 -0.16180995 0.058670778 -0.019769201
0.07732202 0.008156191 0.12839472 -0.028906524 -0.0066454406 -0.07133993 0.025268469 -0.03797503
0.11012382 0.07563352 0.061645042 -0.10174152 -0.06322986 0.08858341 0.05743505 -0.006153795
0.011950958 -0.030576607 0.09778468 0.0088346 -0.038520563 -0.0073564975 -0.10747258 0.0709726
0.032067403 0.092211224 0.045050032 -0.08236938 0.03150782 0.13106613 0.02516479 0.028018551
-0.16456544 -0.11602409 0.11389341 0.17957355 -0.015893506 0.053792052 -0.16183257 -0.21704672
0.055301253 -0.11867758 -0.027400414 -0.16267693 -0.00710777 0.03323046 -0.021407776 0.014311674
-0.13797635 0.021745134 0.0008197837 0.18459313 0.055414736 -0.076090515 -0.1506144 -0.16698025
0.05626808 -0.101211004 -0.13803394 -0.018214008 0.0007227025 -0.1484489 -0.018560583 0.035996377
-0.0038870752 -0.007455477 -0.11482884 0.030270182 0.048697542 0.18610948 -0.07302262 0.011231665
0.06818068 0.06257118 0.0944648 -0.08016534 0.085838616 -0.00082398136 0.067125164 0.010660746
-0.10645435 0.11366836 0.10076971 0.100471124 0.107323974 0.018394146 0.0650676 0.0939509
0.031449158 0.063465774 -0.15144706 -0.016452314 -0.041505326 0.10214916 0.20304798 0.117260896
-0.055367943 -0.07206202 -0.030418117 0.13869981 0.06876643 0.07027114 -0.16074422 0.0002444547
0.068646036 -0.02783852 -0.097258046 -0.11341968 -0.02133979 -0.07534755 -0.16025802 0.03277118
-0.1040563 0.031764317 -0.00066025445 -0.15881224 0.07351417 -0.0167454 0.037787337 -0.04779455
0.008761396 0.22105524 0.08261955 0.037595056 0.12635505 0.16846642 -0.03991627 0.08167317
0.085758075 0.030851897 -0.10059035 -0.011445141 -0.027939146 -0.08386102 -0.13598412 -0.076293096
0.064881995 0.12368176 0.06499564 -0.11709873 -0.08951922 0.041683342 -0.15395692 -0.11297257
0.065102994 0.01888468 0.03681076 0.094937414 -0.0070927427 -0.08082954 -0.0785699 -0.2585689
-0.012518989 -0.062884025 0.008317836 -0.059851296 0.026319543 0.10693263 0.120743506 0.13317229

layers.1.bias f4 [5]
00000000: 271d 9ebc f40f 893d 9766 38be a825 b5bc
00000010: 372f 0fc0
-0.01930101 0.06692496 -0.18007885 -0.022112682 -2.2372568
