src/bread/algo/lineage/saved_models/bst_nn_all_4frames_10features_[40,64,5].pth (torch, 13279 bytes, 4 tensors)

layers.0.weight f4 [64, 40]
0	0x3d649eaa	0.055815376
1	0xbc0de19f	-0.008659749
2	0x3c6f9191	0.014622108
3	0x3c207b1e	0.009794978
4	0xbe2e7b24	-0.17039162
5	0xbdcf81e5	-0.10132197
6	0xbd3bb700	-0.04582882
7	0x3e0239e5	0.12717398
8	0xbe3c0910	-0.18362832
9	0x3d5d2b8b	0.053996604
10	0xbc254fe9	-0.010089853
11	0xbd85146f	-0.06498038
12	0xbdb6768a	-0.08909328
13	0xbe151b50	-0.145612
14	0xbd8a42ab	-0.06750997
15	0xbdb9f8e0	-0.09080672
16	0xbf074066	-0.5283264
17	0xbe5fbf0e	-0.21850225
18	0xbe8e1e60	-0.2775755
19	0xbe14bad2	-0.14524391
20	0xbd0f4906	-0.03498175
21	0xbe53e010	-0.20690942
22	0xbe299efa	-0.16564551
23	0xbdeae5b9	-0.11469597
24	0xbeabaa55	-0.3352839
25	0xbefb5390	-0.4908719
26	0xbf87e04b	-1.0615324
27	0xbeb2ed95	-0.34946886
28	0xbf52645e	-0.821844
29	0xbece9fea	-0.4035638
30	0x3d731a46	0.05935123
31	0xbe4ed06d	-0.20196696
32	0xbb48ddf1	-0.0030649866
33	0x3dc78ea0	0.097440004
34	0xbc5a5333	-0.0133255
35	0x3c969a7c	0.01838421
36	0x3e34f227	0.17670499
37	0xbcd0ff77	-0.02551244
38	0xbdb9463c	-0.09046599
39	0xbd13b996	-0.03606566
40	0x3dc5ef8e	0.09664832
41	0xbcf3fd73	-0.02978394
42	0xbe8d24d2	-0.27567154
43	0xbe53e049	-0.20691027
44	0xbe7330f5	-0.23749144
45	0x3e0c489d	0.13699575
46	0xbec1be63	-0.37840566
47	0xbd5b2bb4	-0.053508475
48	0xbe89c96f	-0.26911494
49	0xbdf600e8	-0.120118916
50	0xbe376761	-0.1791053
51	0xbdb80c2e	-0.08986698
52	0xbf2091fb	-0.6272275
53	0xbf05d22a	-0.5227381
54	0xbeab28a9	-0.3342946
55	0xbef21d52	-0.47287995
56	0xbfc2d734	-1.5221925
57	0xbf0c345d	-0.547674
58	0xbff1e0a3	-1.8896679
59	0xbf0b61bc	-0.54446006
60	0xbd37a726	-0.04483714
61	0xbe8d80fa	-0.27637464
62	0xbed7ff4f	-0.42186972
63	0xbf033526	-0.51252973
64	0xbece7f83	-0.4033166
65	0xbf37c9df	-0.71792406
66	0xbfb8ab50	-1.442728
67	0xbea54168	-0.32276464
68	0xbf47d9fb	-0.78066987
69	0xbebf3236	-0.37342995
70	0xbe80749b	-0.25088963
71	0xbe1b52b1	-0.15168263
72	0x3d2b18a0	0.04177153
73	0xbe255883	-0.16147046
74	0x3e32bc65	0.1745468
75	0xbcb079bd	-0.021542424
76	0x3e217718	0.15768087
77	0x3e2491f5	0.16071303
78	0xbf4a59e5	-0.7904342
79	0x3df44945	0.119280376
80	0x3d02e76b	0.03195898
81	0xbc467e12	-0.012115018
82	0xbe2a0749	-0.16604342
83	0xbc17d5a6	-0.009267246
84	0xbcbe0c18	-0.023199126
85	0x3d96e125	0.07367162
86	0xbeafbd30	-0.34324026
87	0x3eb02b1e	0.34407896
88	0xbed05d11	-0.40696004
89	0x3cf28f3e	0.029609319
90	0x3ec65b6c	0.38741624
91	0x3c39c295	0.011337896
92	0x3ebd6452	0.369906
93	0x3dfff900	0.12498665
94	0xbeab3fe4	-0.33447182
95	0x3fa04919	1.2522308
96	0x40eaf253	7.3420806
97	0xbd9e73f2	-0.077369586
98	0x401eee4c	2.4832945
99	0x3f53e37a	0.82768977
100	0xbc2554de	-0.010091035
101	0xbd2d4b8d	-0.04230838
102	0xbe1582f8	-0.14600742
103	0xbe06e5e4	-0.13173634
104	0x3e414d4c	0.18877143
105	0xbe9d1c21	-0.30685523
106	0xc03f2f02	-2.9872441
107	0x3e601edd	0.21886773
108	0xbf28e406	-0.65972936
109	0xbeade3d7	-0.3396289
110	0xbd218fa0	-0.039443612
111	0x3ce4f57f	0.027949093
112	0xbdea2d6e	-0.11434446
113	0xbe458bc1	-0.19291593
114	0x3d84bd30	0.06481397
115	0xbdad7498	-0.08469504
116	0xbfbcdcb4	-1.4754853
117	0x3ea93ae3	0.3305274
118	0xbf2c32c5	-0.6726497
119	0xbe6df975	-0.23239692
120	0x3d42e54f	0.047581967
121	0xbcda0785	-0.026614914
122	0x3d2a278a	0.041541614
123	0xbe331c0a	-0.17491165
124	0x3df529bd	0.119708516
125	0x3eebe304	0.46071637
126	0x40243fd7	2.5663965
127	0xbd2bf292	-0.04197938
128	0xbecaa587	-0.39579412
129	0x3f08e61f	0.53476137
130	0x3c2993cc	0.010350179
131	0x3c6b2fbd	0.014354643
132	0xbded9850	-0.11601317
133	0xbe2172a3	-0.15766387
134	0x3e413ae7	0.18870126
135	0xbe502a12	-0.20328549
136	0x3ed9daee	0.42549843
137	0x3cd0b405	0.025476465
138	0xbf1afce0	-0.60542107
139	0x3e7a692e	0.24454185
140	0x3e5da285	0.21644028
141	0xbdc897d4	-0.09794584
142	0x3d876133	0.06610336
143	0xbcde7419	-0.027154969
144	0x3e4c0f79	0.19927777
145	0x3f16fc45	0.5897868
146	0x40353428	2.8313084
147	0x3e455b39	0.1927308
148	0xbdc8c0fa	-0.09802432
149	0x3ed01cab	0.40646872
150	0xbda2b76a	-0.0794514
151	0xbe82e5ad	-0.25565854
152	0xbf0c1e5e	-0.54733837
153	0xbf29663c	-0.6617162
154	0x3f291d22	0.6606008
155	0xbf3a86a1	-0.7286168
156	0xc0da527f	-6.8225703
157	0xbdabe3ae	-0.08393036
158	0xbf81b33d	-1.0132824
159	0xbf872cd2	-1.0560553
160	0x3cdd34f8	0.027002797
161	0xbd865f51	-0.06561149
162	0xbe30f50f	-0.17280982
163	0xbe11ba20	-0.14231157
164	0xbf0d3d09	-0.5517126
165	0xbe12fd92	-0.14354542
166	0x3dda093d	0.10646293
167	0xbf7fafde	-0.9987773
168	0xbfafaa25	-1.3723799
169	0xbf60a492	-0.87751114
170	0xbdc3ee3b	-0.09566923
171	0xbc4d81ad	-0.012543124
172	0xbe0871a6	-0.13324603
173	0xbe713745	-0.2355624
174	0x3e602cd1	0.21892096
175	0xbd0a5c59	-0.033779476
176	0xbee0a14a	-0.43873054
177	0x3f561e8b	0.83640355
178	0x3f8c54cf	1.0963382
179	0x3f7ec435	0.9951814
180	0x3e0982a5	0.13428743
181	0xbd216cb4	-0.039410308
182	0xbe72ca46	-0.23709974
183	0xbe8293a2	-0.2550326
184	0xbe9e950a	-0.30973083
185	0xbe8c9025	-0.27453724
186	0x3ec95655	0.3932368
187	0xbf57dc4c	-0.8432052
188	0xbebda5a8	-0.37040448
189	0xbf2c5e43	-0.6733133
190	0xbd8b450f	-0.06800281
191	0xbcd3e86b	-0.025867661
192	0xbe533165	-0.20624311
193	0xbed26d7c	-0.41099155
194	0x3eb136d1	0.34612134
195	0xbdcab007	-0.09896856
196	0xbf4cef98	-0.8005309
197	0x3ebba7be	0.36651415
198	0x3f205a18	0.6263747
199	0x3f87ec4c	1.0618987
200	0xbf124f81	-0.57152563
201	0xbf5fdab7	-0.8744311
202	0xbf5c0fbb	-0.859615
203	0xbf5c200b	-0.85986394
204	0x3f78a2cd	0.97123414
205	0xbf9e9f4e	-1.2392366
206	0xc0b6b3c2	-5.709443
207	0x3e3124a4	0.17299134
208	0x40309d8e	2.7596164
209	0xbe2d1922	-0.16904119
210	0x3e33838f	0.17530654
211	0x3c8a738b	0.016900798
212	0x3e2e1393	0.16999654
213	0xbe322508	-0.17396939
214	0xbcb11900	-0.021618366
215	0x3f0eae36	0.55734575
216	0x40239d6f	2.556484
217	0x3dbe8b98	0.09303969
218	0xbf22d9ad	-0.63613397
219	0x3eacfc18	0.33786082
220	0xbb986d5a	-0.0046517076
221	0x3e2e2341	0.17005636
222	0xbd9c1ed0	-0.076230645
223	0xbeba8f8c	-0.36437643
224	0x3d946b74	0.072470576
225	0x3ef77e92	0.48338753
226	0x3fbeced5	1.490687
227	0x3ec574ae	0.38565582
228	0xbf76dbae	-0.96428955
229	0x3e9093b2	0.28237683
230	0x3d4d6052	0.050140686
231	0x3e1ef8f8	0.15524662
232	0xbe09e511	-0.13466288
233	0xbdf8238b	-0.12116154
234	0x3d6348a4	0.055489197
235	0x3efb2905	0.49054733
236	0x400a33e2	2.1594167
237	0x3ee59d64	0.44846642
238	0xbf806c77	-1.0033101
239	0x3e5d472e	0.21609184
240	0xbe4bd123	-0.19903998
241	0xbe2e751e	-0.17036864
242	0xbdcce23f	-0.100040905
243	0x3dbc7754	0.092024475
244	0x3d15b72f	0.03655165
245	0xbe14a0d4	-0.14514476
246	0xbe1f141d	-0.15535016
247	0x3d2144e4	0.03937234
248	0xbe5f69ae	-0.21817657
249	0xbbe54cb3	-0.0069976687
250	0x3da41ffc	0.08013913
251	0xbdec4aca	-0.115377024
252	0xbd498fde	-0.049209468
253	0xbe86d874	-0.26337016
254	0xbea1faa9	-0.3163655
255	0x3e261294	0.16218024

layers.0.bias f4 [64]
0	0xbe1205d4	-0.14260036
1	0x3dfd93b1	0.123816855
2	0x3e1ac52a	0.15114275
3	0x3d78414b	0.060609143
4	0x3e55e61d	0.20888563
5	0x3d2822eb	0.041048925
6	0xbdba5d2b	-0.09099802
7	0xbe3b5a5e	-0.18296191
8	0x3ed8c03c	0.42334163
9	0xbd3cff25	-0.046141762
10	0xbdc09122	-0.09402682
11	0x3e53fe16	0.20702395
12	0x3fa614be	1.297508
13	0x3e50ac32	0.20378187
14	0x3e9bdc7b	0.3044165
15	0x3bec7cac	0.0072170105
16	0xb899dcda	-7.336745e-05
17	0xbe76c4ad	-0.24098463
18	0x3d8982e3	0.06714418
19	0x3d7df0eb	0.061997335
20	0xbe403190	-0.18768907
21	0x3f8450f9	1.0337211
22	0x3c8081d9	0.015686916
23	0xbcfcc248	-0.03085436
24	0x3df75de6	0.120784566
25	0xbc33ddcf	-0.010978176
26	0xbe86e90d	-0.2634968
27	0xbe0e8ec3	-0.13921647
28	0xbec7da7f	-0.39033887
29	0xbda1d0a3	-0.079011224
30	0xbe032c8e	-0.12809965
31	0x3ea529b4	0.3225838
32	0xbc5ed186	-0.013599759
33	0x3b87a6aa	0.004139741
34	0xbe33f975	-0.17575629
35	0x3bab7b1b	0.005233181
36	0x3f9bc960	1.217083
37	0xbdf355e7	-0.11881619
38	0xbe44f70d	-0.19234867
39	0x3dfccaac	0.12343344
40	0x3ee0b4d3	0.43887958
41	0x3e702905	0.23453148
42	0xbe49a6b0	-0.19692492
43	0x3fb81a0f	1.4382952
44	0xbe278082	-0.16357616
45	0x3d8e50c8	0.069490016
46	0xbe688ba6	-0.22709522
47	0xbd8dc05a	-0.06921454
48	0xbc043251	-0.008068637
49	0xbbfb04fa	-0.0076605054
50	0xbe53b6b5	-0.20675166
51	0x3eb4b00d	0.35290566
52	0x3f5096c6	0.8148006
53	0xbdb2769c	-0.08714029
54	0x3e43db2f	0.1912658
55	0x3f6002da	0.8750435
56	0x3a72e328	0.00092654163
57	0x3e9db1af	0.30799624
58	0x3e658804	0.22415167
59	0x3d32c290	0.04364258
60	0x3d6748d8	0.056465954
61	0xbe624807	-0.22097789
62	0x3f22d3fb	0.63604707
63	0x3f3c9efe	0.736801

layers.1.weight f4 [5, 64]
0	0xbc65edec	-0.014033776
1	0xbcaa58da	-0.02079432
2	0x3d9c248e	0.0762416
3	0xbde711d0	-0.11282694
4	0xbc7fcae8	-0.015612341
5	0x3e5b759a	0.2143158
6	0x3d967241	0.07346011
7	0xbf0b9df4	-0.5453789
8	0x3e51b82c	0.20480412
9	0x3c226c02	0.009913446
10	0x3d777776	0.06041666
11	0xbdddee32	-0.10836448
12	0x3dcae61a	0.0990717
13	0x3d93644d	0.07196865
14	0xbec6290b	-0.38703188
15	0xbe12d6e8	-0.14339793
16	0xbc7b206c	-0.015327554
17	0x3d71e999	0.059060667
18	0x3e134da3	0.14385085
19	0xbda444a6	-0.08020906
20	0x3dbc2458	0.091866195
21	0x3eade027	0.33960077
22	0xbf351398	-0.7073302
23	0xbe280ebb	-0.16411869
24	0xbebf1564	-0.37321007
25	0x3e6b6a09	0.22989668
26	0x3d884ddf	0.06655478
27	0x3db26985	0.087115325
28	0x3df9a6b7	0.121900015
29	0x3d5b3e95	0.05352648
30	0x3dcc7748	0.099836886
31	0xbee057ea	-0.43817073
32	0xbde736a4	-0.11289719
33	0x3a9eb436	0.001210815
34	0x3cf5a93b	0.029987922
35	0xbdc953c5	-0.09830431
36	0x3e99006f	0.29883143
37	0xbd01d562	-0.03169764
38	0x3c61e7ae	0.013788147
39	0xbdb518bf	-0.088426106
40	0x3e4c1fe6	0.19934043
41	0xbe6b3614	-0.22969848
42	0x3d9f9657	0.07792347
43	0xbeb4eb35	-0.353357
44	0xbe1f62ca	-0.15565029
45	0xbe086ca9	-0.133227
46	0x3e5cacaa	0.21550241
47	0x3c71af37	0.014751247
48	0x3dd7fa8b	0.10545834
49	0x3f436a11	0.7633372
50	0xbc99fde9	-0.018797832
51	0x3db94bee	0.090476856
52	0xbf0de641	-0.55429465
53	0xbd2c7da2	-0.042112
54	0x3df07d99	0.11742706
55	0xbcced0c6	-0.025246035
56	0x3e01dac4	0.12681109
57	0x3e1e0ea3	0.15435271
58	0xbdb5d66b	-0.088787876
59	0xbd4a64f0	-0.049412668
60	0x3cf33d73	0.029692387
61	0xbc0246e8	-0.007951476
62	0x3c6796ff	0.014135121
63	0x3c65b4e5	0.014020179
64	0xbccb7a76	-0.024838667
65	0xbdb6786e	-0.08909689
66	0xbeae43bf	-0.3403606
67	0xbd991095	-0.07473866
68	0x3e02013f	0.12695788
69	0xbde858eb	-0.11345085
70	0xbe06519c	-0.13117069
71	0x3d9e6af6	0.07735245
72	0x3ec68510	0.38773394
73	0x3d235ec6	0.039885305
74	0x3d089b5b	0.033351284
75	0x3e9012a0	0.2813921
76	0xbf4993b2	-0.7874099
77	0xbdbbdbcc	-0.09172782
78	0xbd1c38aa	-0.038139977
79	0x3d881279	0.066441484
80	0x3ceb540b	0.028726598
81	0xbe9eb1b1	-0.30994943
82	0x3d339f2a	0.043852963
83	0x3cc56840	0.024097562
84	0x3db29179	0.08719153
85	0x3e89e900	0.26935577
86	0x3df86d0c	0.12130174
87	0xbd93ead4	-0.07222524
88	0x3e1d60c3	0.15368943
89	0xbea8ccf4	-0.32968867
90	0x3db7b3d1	0.08969844
91	0x3bd62a79	0.006535825
92	0xbeb89477	-0.3605077
93	0xbe05d4c6	-0.13069448
94	0x3deeeff9	0.11666865
95	0x3db23e62	0.08703305
96	0xbd65aca2	-0.05607284
97	0x3c3159be	0.010824619
98	0x3d98cfa2	0.07461478
99	0xbdc63a48	-0.09679085
100	0x3e52772f	0.20553277
101	0xbcd3aaa6	-0.025838207
102	0x3b6d6711	0.0036224762
103	0xbd716a58	-0.058939308
104	0xbe50117a	-0.20319167
105	0xbed6adc7	-0.41929457
106	0x3da0a4be	0.07843922
107	0x3e8e2e74	0.27769816
108	0xbd43f941	-0.04784513
109	0x3da71674	0.081585795
110	0x3e72d84e	0.23715326
111	0x3c9bb075	0.01900504
112	0xbe56e2c1	-0.20984937
113	0xbee4b4d5	-0.44669214
114	0x3d8f2a41	0.06990481
115	0xbe07628d	-0.13221188
116	0x3dd523d6	0.10407226
117	0xbdd245e1	-0.102672346
118	0x3c887631	0.01665792
119	0x3e5e6326	0.2171751
120	0x3de01acc	0.10942611
121	0x3e258f8e	0.16168043
122	0xbdaf9328	-0.0857299
123	0xbdc4f5d7	-0.09617203
124	0x3d8b68b2	0.068070784
125	0x3cb99df2	0.022658322
126	0xbdd83d62	-0.10558583
127	0x3c9bbd27	0.019011093
128	0xbd6fa297	-0.058504667
129	0xbcdd95c4	-0.027048953
130	0x3de34634	0.110973746
131	0xbe0c80e5	-0.13721044
132	0xbe7f6b09	-0.24943174
133	0xbda375b4	-0.079814345
134	0x3aa26e13	0.0012392424
135	0x3e0688ca	0.13138118
136	0xbe6342b6	-0.22193417
137	0x3bf7d3fb	0.007563112
138	0x3d443884	0.04790546
139	0xbdd96f65	-0.1061695
140	0x3def43e6	0.116828725
141	0x3db61e84	0.08892539
142	0xbd7b3e44	-0.061338678
143	0x3da83a37	0.082142286
144	0x3d7d38c3	0.06182171
145	0x3dbd004f	0.092285745
146	0xbecc7c07	-0.39938375
147	0x3c6156c0	0.013753593
148	0x3c86c57d	0.016451592
149	0x3e9f003d	0.3105487
150	0x3dc0fc0b	0.094230734
151	0xbc214baa	-0.0098447
152	0x3e008031	0.12548901
153	0xbc416fe8	-0.011806466
154	0x3d57421e	0.05255329
155	0x3d334be7	0.043773558
156	0x3efc5639	0.49284533
157	0x3c981694	0.018565454
158	0x3db751de	0.08951162
159	0x3e14d3bb	0.14533894
160	0xbd7fc9f1	-0.062448446
161	0x3d23d2d5	0.039995987
162	0xbcdcd5f6	-0.026957493
163	0x3e87acfd	0.26499167
164	0xbf347b8a	-0.70501006
165	0x3dc7d184	0.09756759
166	0x3dba638d	0.09101019
167	0xbdc524f4	-0.09626189
168	0xbe099b6c	-0.13438195
169	0x3e8f46c1	0.27983668
170	0x3d8a24d6	0.06745307
171	0x3e92a53c	0.2864169
172	0xbddd0680	-0.107922554
173	0xbc75d507	-0.015004403
174	0xbebc0cbf	-0.36728474
175	0x3d3b76d9	0.04576764
176	0x3dece5e0	0.11567283
177	0xbefef482	-0.4979592
178	0x3d1977cd	0.037467767
179	0xbca87917	-0.020565553
180	0x3dab7ef6	0.08373825
181	0xbd9d018c	-0.07666311
182	0xbd83535d	-0.06412385
183	0xbece5f2c	-0.40306985
184	0xbd9073ea	-0.07053359
185	0xbeec47f1	-0.46148637
186	0xbdb76982	-0.08955671
187	0xbdea85e2	-0.11451317
188	0x3d59b224	0.053148404
189	0xbca169e6	-0.019703817
190	0x3e252c22	0.16130117
191	0x3d0b2862	0.03397406
192	0x3d979d73	0.07403078
193	0x3ea2464f	0.31694266
194	0x3d7bbb45	0.06145789
195	0x3e174930	0.14774013
196	0x3e02a191	0.12756945
197	0xbd987646	-0.07444434
198	0x3c7958e7	0.01521895
199	0x3d438678	0.04773566
200	0x3e817f59	0.2529247
201	0xbd6305a2	-0.055425294
202	0x3d201cd5	0.039089996
203	0xbdd4ffdc	-0.10400364
204	0x3de69457	0.11258762
205	0x3e1a5d1a	0.15074578
206	0x3d311cab	0.04324023
207	0x3d04bb57	0.032405224
208	0x3bc9da0c	0.0061600264
209	0xbd8fa259	-0.07013387
210	0x3da3a34c	0.07990131
211	0xbb7eae40	-0.0038861185
212	0xbe90d9eb	-0.28291258
213	0xbf18841a	-0.5957657
214	0xbe381247	-0.17975722
215	0x3e8d2167	0.27564546
216	0x3defde21	0.117122896
217	0xbdb1618e	-0.08661185
218	0x3ba45ae3	0.0050157174
219	0xbbecee1b	-0.007230533
220	0xbe498282	-0.19678691
221	0x3dc0e0d5	0.09417883
222	0xbd81fafb	-0.06346699
223	0x3ddad9d4	0.10686079
224	0xbd7499f2	-0.059717126
225	0x3bf6d38b	0.007532542
226	0xbd1a57f2	-0.037681527
227	0xbdc653f7	-0.09683984
228	0x3dcc07a2	0.09962393
229	0xbd045e89	-0.03231672
230	0xbf62b7a6	-0.88561475
231	0x3e05aa12	0.13053158
232	0x3e3b18cc	0.18271178
233	0x3bf05b0e	0.0073350733
234	0xbecb4f60	-0.39708996
235	0x3de57a77	0.11204999
236	0x3e13df8c	0.14440745
237	0x3dc59cc1	0.09649039
238	0x3e24138f	0.16023086
239	0x3e77dcbf	0.24205302
240	0x3e3105cb	0.17287366
241	0x3e218ed6	0.15777144
242	0x3dca75d0	0.09885752
243	0xbd5fc444	-0.054630533
244	0x3de9eeb7	0.11422484
245	0x3dac4c47	0.08412986
246	0x3b1c662a	0.0023864605
247	0x3e536291	0.20643069
248	0x3da1aabd	0.07893894
249	0x3e0ca033	0.13732986
250	0x3e76e0a3	0.2410913
251	0x3e2081f9	0.1567458
252	0xbd4b66f1	-0.04965872
253	0x3dbdc27a	0.09265609
254	0xbe34ec29	-0.17668213
255	0xbf2997a0	-0.66246986

layers.1.bias f4 [5]
0	0x3dacd485	0.084389724
1	0x3e0f8ea4	0.14019257
2	0x3cfbead1	0.030751618
3	0xbe227002	-0.1586304
4	0xbf8ea204	-1.1143193
