src/bread/algo/lineage/saved_models/bst_nn_all_4frames_12features_[48,64,5].pth (torch, 15327 bytes, 4 tensors)

layers.0.weight f4 [64, 48]
00000000: d566 5fbe 1a9d a7be 2fb4 b7be f918 a1be
00000010: a56b d43e abca 01c0 fbef abc0 3408 bebc
00000020: ca76 94c0 9541 a2bf 469b a93c 3c80 683d
00000030: 4b9c 723e 2b44 283e bbfb 53bd dfc8 83be
00000040: 5836 46bd d1c2 473f 0488 bf3f 75d6 b63e
00000050: 7150 a13f 7abc 283f 2485 533c 0af5 c03b
00000060: 990f fb3c b318 a6bb e0cb 7cbe 8e05 9dbe
00000070: d095 273e 6612 20bf b14f a9bf 431f 893e
00000080: 2085 03c0 c997 b6be c45a e73b 1bc7 be3a
00000090: bc0c f53e e90a 583e 3235 6dbe cfea 8abe
000000a0: 5216 e4be fcea 3740 d026 c340 cd28 063f
000000b0: a776 8540 1857 0c40 e8c4 3d3d 4fc6 04be
000000c0: 85a5 ddbd fadc 47bd 707b 383d 75d7 843d
000000d0: 3a56 1c3e cdfc 253e ac47 0a3d 3778 9cbd
000000e0: f6e8 f23e f151 bdbc bde2 683d 24a6 9abd
000000f0: c806 fe3c 7506 87bd 84eb b23d 0afe 333e
00000100: 48c4 9abd 413e 5a3e 5edf 28be b096 89bd
00000110: a072 143f e3f5 0b3e 6c73 a9ba bfde 1c3c
00000120: df92 f5bd d915 2fbe 1c48 543d 4cb7 193e
00000130: db1c 563d 9409 1f3f e963 243f 995c 353e
00000140: ed4d 8fbd d9a4 d53d a184 85be 3edf 44be
00000150: 2225 163d 373b a8bd f25c b6bd d921 dcbc
00000160: c56a 4e3e 9d64 96be e648 6dbf 464c c83d
00000170: ee48 38be 093d 14be 545d 55bc 47f1 363c
00000180: 7dec 53bd 4179 7e3c e763 a2be 02e9 3abd
00000190: f807 bd3c 0afa e5bf 5bbf 64c0 af5e 01bf
000001a0: fc9f 52c0 d6af bebf 3390 39ba 3ff9 1c3c
000001b0: a3d0 11bc 4900 edbc 616c 91be 409f 5cbd
000001c0: c49b 93bd 95f0 72bf a28b d6bf cded bbbe
000001d0: 95f4 c8bf 5ca5 38bf fb59 1ebc 84c4 d53c
000001e0: 4ead 3b3f ef90 293f a093 a0be b652 86be
000001f0: 691f 6bbf b7c6 3f40 f937 d040 f28c 8e3d
00000200: 9204 7540 0b6b e53f b398 163d fa86 2f3c
00000210: 3817 49bd 93f8 a13d 0901 8cbe 7812 06be
00000220: 9e0b 90be ad98 5cbf 63a6 babf 8e14 3ebe
00000230: 1b7c f2bf 5014 3bbf bd37 86bc be95 da3c
00000240: a66e 15be 12b4 e1bb eed1 45be 815d 0fbe
00000250: eeec 5fbd 0ee3 213c b5ab 7d3e e0e2 973d
00000260: 2fa4 903e c6b9 b6bc 54df 3fbe cc01 09be
00000270: 4bcb 2bbe ab74 42bc aaed 36bc 7316 22be
00000280: 13e1 903d ccec 38be 143e 6dbe 751f 42bc
00000290: 0e5f d3ba 4c17 d5bd 8b9f f43b 444b 68bd
000002a0: 437c 30bd 2ac8 4abe d698 7b3d a461 82bd
000002b0: 45db a13c 7f70 ef3d 845c 27bd 26ab 5abd
000002c0: 162f 85bd e509 cbbd 6580 863c 31e7 3abe
000002d0: 3a97 7dbd 7bb7 27bd daaa 6c3d 1208 24bb
000002e0: 1d84 053d dee3 22bd c876 77be 519f a6bc
000002f0: b689 18bd d776 e83c 0587 03bd 87a5 88bd
00000300: 217f d6bd de61 d4bd dab3 553d 893e e13c
00000310: 468c 57be 7a73 0abe 9865 b1be 1157 3f3d
00000320: ccae 5fbf fded 93bd 36de c3bd 9b94 bebd
00000330: 4137 aebe ca26 5ebe e7b1 9fbe 8ef5 97bc
00000340: 4eb8 a9be 893d 9bbe d558 bcbd 8b9d 063e
00000350: a4d4 483f c40c 1d3e 53a7 0abe 42c4 753c
00000360: e70e 883c 30d4 4f3c f66f b8be a9f1 87be
00000370: ae3b 57be 3401 e0be 0657 f7be 90ae 8fbe
00000380: 8a23 9dbe ea42 f5bd 98bb 8bbd d423 7abe
00000390: 1ce4 13bc 8b2f 4d3d 5a04 39be 0893 09bd
000003a0: 7f56 00bd 06a3 343e 252b 93bb 816b 83be
000003b0: 442c aa3c b347 48be 2f2c a23d a66f 94be
000003c0: 6555 3ebe 9fe6 05be 0fd9 8cbe 8e3f a8bc
000003d0: eab5 873e 78c2 1ac0 7297 9cc0 310f b9be
000003e0: 9d6c 6bc0 1d95 c3bf ac00 833a ccdd f73c
000003f0: 97fa 983e e770 a33d 4d9c 1fbe 95f9 9cbd
-0.21816571 -0.32737046 -0.35879657 -0.31464365 0.41488376 -2.0279949 -5.3730445 -0.02319727
-4.6395006 -1.2676264 0.020703923 0.05676292 0.23692434 0.16432254 -0.05175374 -0.2573919
-0.04839167 0.7803164 1.4963384 0.35710493 1.2602674 0.6591259 0.012910161 0.005888586
0.030647086 -0.0050688623 -0.24687147 -0.306683 0.16365743 -0.62528074 -1.3227445 0.26781663
-2.0550003 -0.35662678 0.0070603807 0.0014555188 0.47861278 0.21097912 -0.23164824 -0.2713227
-0.4454828 2.8737173 6.098488 0.5240601 4.170734 2.1928158 0.046330363 -0.12966274
-0.10822586 -0.048794724 0.045039594 0.06486408 0.15267268 0.16209717 0.033759758 -0.07640117
0.4744336 -0.023110362 0.05685686 -0.0755122 0.031009093 -0.065930285 0.08736327 0.17577377
-0.07556969 0.2131281 -0.16491458 -0.067181945 0.57987404 0.13668017 -0.0012928075 0.009574591
-0.11990904 -0.17098178 0.05182658 0.15011328 0.052273612 0.6212399 0.6421495 0.17711104
-0.06997285 0.10431833 -0.2607775 -0.19225785 0.036656506 -0.08214419 -0.08904447 -0.026871609
0.20157917 -0.29373637 -0.9268936 0.09780173 -0.1799657 -0.14476408 -0.013022739 0.011165923
-0.051739205 0.015531839 -0.31716844 -0.04563237 0.023075089 -1.7966931 -3.5741794 -0.505351
-3.2910147 -1.4897411 -0.00070786773 0.009580909 -0.0088998405 -0.0289308 -0.28403 -0.05386281
-0.07207444 -0.9489835 -1.6761363 -0.36704865 -1.569964 -0.7212732 -0.009665008 0.026094683
0.73311317 0.66236776 -0.3136263 -0.26234978 -0.91844803 2.9965036 6.5068326 0.06960477
3.828404 1.7923292 0.03676672 0.010713333 -0.04909441 0.0790874 -0.2734454 -0.13092983
-0.28133863 -0.86170465 -1.4582027 -0.18562528 -1.8944124 -0.7307787 -0.016384 0.02668273
-0.1459299 -0.006887921 -0.19318363 -0.14000513 -0.054669313 0.009880794 0.24772532 0.0741632
0.28250262 -0.02230538 -0.18737537 -0.13379592 -0.16776769 -0.011868636 -0.011165062 -0.15828876
0.070741795 -0.18059081 -0.23168212 -0.01184832 -0.0016126351 -0.10404834 0.007465308 -0.056712404
-0.043087255 -0.19802919 0.061425053 -0.0636628 0.019757876 0.11691379 -0.040859714 -0.053385876
-0.065031216 -0.099139966 0.016418645 -0.18252255 -0.0619118 -0.040946465 0.057780124 -0.0025029224
0.032596696 -0.039768092 -0.24166405 -0.02033964 -0.037240706 0.02837698 -0.032111187 -0.06672197
-0.10473467 -0.10370229 0.052173473 0.02749564 -0.21049604 -0.13520613 -0.34647822 0.046713892
-0.87376094 -0.07223127 -0.09563868 -0.09305688 -0.3402653 -0.21694484 -0.31190416 -0.018549707
-0.33148426 -0.30320385 -0.09196631 0.13146035 0.78449464 0.15336901 -0.13540392 0.015000405
0.016608668 0.012684867 -0.3602292 -0.2655156 -0.2101886 -0.43750918 -0.4830858 -0.28062868
-0.30691177 -0.119756535 -0.0682289 -0.2442773 -0.0090265535 0.05009417 -0.18068066 -0.033587486
-0.03133249 0.17640314 -0.004491227 -0.25667956 0.02077306 -0.19558601 0.079185836 -0.2899143
-0.18587263 -0.13076256 -0.27509353 -0.020538118 0.26505977 -2.4181194 -4.893487 -0.36144403
-3.6785042 -1.5279881 0.0009994707 0.030257128 0.29878685 0.07980519 -0.15586968 -0.076647915

layers.0.bias f4 [64]
00000000: b3a4 963e 6f24 bdbc c484 1cbe 63a5 11bb
00000010: 1f5d 22be f0b3 0dbe 553d d73d a22d 3abc
00000020: bb56 74bd 8744 a73e 3761 cabe 2cf1 cabd
00000030: 3eaf 01bf e1d1 33be f56c d3bf 20c5 7ebe
00000040: 6bed 27be cfd9 963f 19e5 6e3e 5075 653d
00000050: fbea fabd e402 e03d 5622 42bd 2c04 2fbe
00000060: 8653 c9bd fc1d 8cbc 8aff 1fbe 821c 343c
00000070: 10c3 aabf 7463 393f ed6b bb3e 4f87 5cbe
00000080: 2b11 e3bd e501 a2bd 3e5d 2cbf aee5 1cbe
00000090: 1ee1 b3bd d082 eb3d b6c8 5ebd 9273 11be
000000a0: 7ce7 40be 00e5 9e3d 225c 833d ca6e 58be
000000b0: bc1a 3fbd d1b5 893d d4f4 34bc 3d9a 49bf
000000c0: 8e75 bc3c 9cc1 28be c09a 0e3d afa3 59bc
000000d0: 4f04 6abe b52e 8b3d e63f f4bc 01f3 db3d
000000e0: 4aa3 d0bc a45a 2abe 2436 3b3f 3786 babb
000000f0: 9ccb 273f 0620 163d 3478 6bbd e57e ac3e
0.2942253 -0.023088662 -0.15285021 -0.0022223822 -0.15855835 -0.13838172 0.10509745 -0.011363419
-0.059653025 0.3266947 -0.39527294 -0.09909281 -0.50658023 -0.17560531 -1.6517626 -0.24879885
-0.16399162 1.178522 0.23329581 0.05602008 -0.1225185 0.10938051 -0.047396027 -0.17091435
-0.09830384 -0.017104141 -0.15624824 0.010993125 -1.3340778 0.7241738 0.36605778 -0.21535991
-0.11087259 -0.079105176 -0.67329776 -0.15321991 -0.08783172 0.1149956 -0.05439063 -0.14204243
-0.18838304 0.07758522 0.06414057 -0.21136013 -0.046656355 0.06724132 -0.0110447 -0.78750974
0.023005273 -0.16480106 0.03481555 -0.013283654 -0.22853206 0.06796018 -0.029815625 0.10739709
-0.025468487 -0.16636139 0.7312949 -0.005692269 0.6554506 0.036651634 -0.05748768 0.33690563

layers.1.weight f4 [5, 64]
00000000: 4e14 0c3e c674 623d 0aeb cc3d 26a5 80bd
00000010: 3b81 b13c f817 163d b478 3e3c b6ae 8c3c
00000020: dffb d73c 9404 c4bc eb17 d63d 0640 8f3d
00000030: 02f8 bdbc ac46 febd bedd 6dbb 1fa8 4c3d
00000040: 0157 f3bc 1bb1 4dbc 3287 953c 7a4e e03b
00000050: 4bbd 2c3c f384 e33c 1b7b 58bd 2e87 283b
00000060: 04a4 123e 25c3 643d 96f5 91bc f65d d9bd
00000070: 9110 c6bd 7359 ecbc 0a22 663d 0cce b63a
00000080: cc2e b7bc 5e39 fe3d ac25 df3c 0446 a3bd
00000090: 7c3c aebc 656d 7f3d a416 5f3c e5d0 5dbd
000000a0: d907 7a3c 280f 583d 1e25 01bc 6818 893d
000000b0: 7b46 853d e5fd adbd 7baf cc3c 00da b33d
000000c0: 5e20 113d f53d 333d ca1d bfbd a3ac 92bd
000000d0: 47b0 51bd 6624 34bc 1096 2d3d bfeb 8dbd
000000e0: 03f8 78bd 5035 873d 9598 9c3d dcac baba
000000f0: 7473 16be 78b2 9d3c 3e81 d4bd df9d 62bd
00000100: 4907 773d 7f68 b13d 30a1 9d3d 2fd4 43ba
00000110: 02d2 a6bc 5435 18bd 1184 18bc c771 3c3d
00000120: eb75 b1bd a601 123d 81f6 c03d 9b25 563d
00000130: 5eb2 933d 5a45 51bc 577c e6bd 7dd3 11bd
00000140: 4d26 b0bc 26bd 4ebc ff8e bdbd bc41 82bc
00000150: c3bf c7bd 323f 743d 9cf0 afbb b50d 483b
00000160: 9798 45bd f90e e8bd 6549 043e 7add ca3d
00000170: 257f 0b3d dded 4cbd 3598 84bd ccbf 8c3d
00000180: 14ae 1d3c c9ca 2a3e 34e6 e33c 33c4 28bd
00000190: 4026 073d 45c8 c0bb f5d6 c93d d93a fabb
000001a0: 2d98 f7bc e416 06be 2cbc 593d 632f 0dbb
000001b0: f8e7 6f3d 48b9 a53c 756c 0abd 5a16 b03d
000001c0: 4e3d 7d3c 00fe 083d 8ca0 5a3d cc13 0bbd
000001d0: 3203 27bd 9083 30bd 2b5f 7b3d a7c7 90bd
000001e0: fc1d 763d 2afe 22bd c5f4 a03d 9ab8 b93c
000001f0: a0e4 04bd df10 e6bd 4748 053d 04f5 1b3d
00000200: d5bb 9f3d 0561 88bc fc0b a0bc b20b 5abc
00000210: 02fb b53d 90bf cbbd a90b 153d d238 a43c
00000220: f261 c03d d6cf 51bc cc99 c63d 2d37 fabd
00000230: 4e1d b13d 1b7f b7bc b63c 8cbb 0c11 433d
00000240: c043 f13b 57e9 29be 0679 9f3d bf76 743d
00000250: 6b36 32be 1adf 82bd e9b9 033d 49bb 3d3d
00000260: 9984 6ebd bc53 9038 c0dd 633d c50b 7abd
00000270: 092c 1e3d 1f44 1dbd 115e fabc 54f3 3d3e
00000280: 7946 693c 34d9 1d3e ef6b c93c 1b96 c33c
00000290: cc39 b83c f011 03be 574f c23d 3e67 9bbc
000002a0: a452 393d 1fb5 fd3c 7052 8f3d b1ea 32bb
000002b0: 3368 683d 064e a03c 7f89 493d 0ac2 903d
000002c0: ca53 65bd 3d32 e53d 892e a53d afc2 f8bc
000002d0: e231 6ebd 1728 9e3d 6874 0cbd 7d21 75bd
000002e0: 94cf 65bd a3dd 9e3c 220e a53d 3e9c 69bb
000002f0: 1939 cf3c 6546 72bd 5956 503d 2216 c03b
00000300: c960 1d3b 0338 b33d a071 af3d 83f1 823d
00000310: 0420 acbd e715 653c bd03 c3bd e49f 9a3d
00000320: 02f5 9fbd 66db b2bc 6315 b6bc b4de f13d
00000330: 1441 ad3d 8479 a2bd 3809 973b 19af 493d
00000340: 44d7 b5bd 2f84 4ebb af62 d13c 8f9c 123c
00000350: b835 183d 0491 aebd 4d74 cd3d 2f11 19be
00000360: 28b9 9fb8 b243 9c3d 6f73 71bd 7442 89bd
00000370: 6931 fb3c d360 5b3d 0a73 0ebd 4097 e4bc
00000380: 4957 68bc 0de2 b13c ddd7 74bd de28 c3bc
00000390: 8756 f43c cd5c b3bc 4c96 3fbc 0ddb 1f3d
000003a0: c595 9cbd b631 6f3d 54bd 8e3d 1304 253d
000003b0: ba72 293d 6f40 413c 5a08 bd3b 2310 5cbd
000003c0: e351 753c 59b6 163d 69fa 85bc 661d a2bd
000003d0: 7e97 a7bb c756 d7bd 86bd 8a3d 1154 a83d
000003e0: 5fce bf3d 9874 e6bc 70f2 7cbc 5ca0 4cbd
000003f0: a887 53bc 1116 57bd 7f79 023d 9c98 293d
0.1367962 0.055287145 0.10005768 -0.062814996 0.021668067 0.036643952 0.011625458 0.017173152
0.026365219 -0.023927964 0.10453781 0.069946334 -0.023189548 -0.12415823 -0.0036295499 0.04996502
-0.029704573 -0.012554432 0.018252943 0.0068452926 0.010543178 0.027773356 -0.052851778 0.002571534
0.1432038 0.055850167 -0.0178173 -0.10613625 -0.096711285 -0.028851246 0.056184806 0.0013946905
-0.022361182 0.12413286 0.027239643 -0.07972339 -0.021269076 0.062360186 0.013616238 -0.054154295
0.01526066 0.05274883 -0.007882385 0.06694108 0.06507584 -0.08495692 0.02498602 0.087818146
0.03543126 0.04376026 -0.09331854 -0.07161834 -0.0511935 -0.010995006 0.04237944 -0.069297306
-0.060783397 0.066019654 0.0764629 -0.001424219 -0.1469248 0.01925014 -0.103762135 -0.05532634
0.060309682 0.08662509 0.0769676 -0.00074702775 -0.020363811 -0.037160233 -0.009308831 0.046006944
-0.08665069 0.035646103 0.09422017 0.052281957 0.07211755 -0.012772882 -0.11254185 -0.03560208
-0.021502638 -0.012618339 -0.0925579 -0.015900485 -0.097533725 0.05963058 -0.005369259 0.0030525748
-0.048241224 -0.11330981 0.12918623 0.099055246 0.0340568 -0.05003153 -0.06474344 0.0687252
0.009624023 0.16678919 0.02781973 -0.041202735 0.032995462 -0.005883249 0.09855453 -0.0076364097
-0.03022393 -0.1309467 0.05315797 -0.0021543137 0.058570832 0.02022995 -0.03379484 0.08598013
0.015456511 0.03344536 0.053375766 -0.033954427 -0.04077453 -0.043094218 0.061370056 -0.07069331
0.06008719 -0.03979317 0.07859186 0.022671033 -0.032444596 -0.11233687 0.032539632 0.038075462
0.07799498 -0.016647825 -0.019536965 -0.013308452 0.088857666 -0.09948647 0.036388073 0.020046625
0.093936816 -0.0128059 0.09697303 -0.12217555 0.086481676 -0.022399476 -0.0042796982 0.04762368
0.0073628128 -0.16592918 0.07786755 0.059683558 -0.17403571 -0.063902095 0.03215972 0.046321187
-0.058231924 6.882052e-05 0.0556314 -0.06104638 0.038616214 -0.038395043 -0.030562432 0.18549854
0.014237993 0.15414888 0.0245876 0.023875287 0.022488497 -0.12799811 0.09487789 -0.018970128
0.045244828 0.030970154 0.069981456 -0.0027300532 0.056739997 0.019568454 0.049203392 0.0706826
-0.05598811 0.11191223 0.080655165 -0.03036627 -0.05815304 0.0772249 -0.0342907 -0.05984639
-0.056106165 0.019392794 0.08059336 -0.0035646106 0.025295781 -0.059149165 0.050863598 0.0058620134
0.0024013987 0.08750918 0.08566594 0.06393721 -0.08404544 0.013982273 -0.095221974 0.07550028
-0.078104034 -0.021833133 -0.022226995 0.118100554 0.08459678 -0.079333335 0.0046092533 0.04923925
-0.08878949 -0.0031511893 0.025559751 0.008948459 0.037160605 -0.08523753 0.10031948 -0.14947961
-7.616199e-05 0.07630099 -0.058947977 -0.06702128 0.030663209 0.053559136 -0.03477768 -0.027904153
-0.014180967 0.021714235 -0.059776176 -0.023823198 0.029826416 -0.021894837 -0.011693548 0.039027262
-0.07645754 0.058397017 0.06969705 0.04028709 0.041369177 0.011795147 0.005768818 -0.053726327
0.014973137 0.036794994 -0.016354756 -0.079157636 -0.005114495 -0.10514598 0.0677443 0.082191594
0.09365534 -0.028131768 -0.015438661 -0.049957618 -0.012910761 -0.05251128 0.03185415 0.041405305

layers.1.bias f4 [5]
00000000: 8a9c a7bd 3ad7 2fbe 7575 9a3e d837 b1bd
00000010: 9b24 e2bf
-0.08184154 -0.17171946 0.30167738 -0.086532295 -1.7667421
