src/bread/algo/lineage/saved_models/model_nn_16.pth (torch, 19423 bytes, 4 tensors)

layers.0.weight f4 [64, 64]
00000000: 93f7 33bd f118 cdbd 284c e5bc 7ab6 99bd
00000010: ff02 87bc 4255 29bd d0d9 afbd 1e82 2fbe
00000020: 3af9 2fbd 694c 3abe cd26 64bd 8ac9 84bd
00000030: b4ce cdbd 5780 fb3c a315 08bd f196 aabc
00000040: 84ed eb3c bf3f 04be 122a febd 21cc 213d
00000050: 05f9 47be e3ff acbd 8204 b2bd d519 3e3c
00000060: 7da9 b1bd 33e2 28bd b7e9 a6bd 111c 17be
00000070: f20a 15be 8823 0ebe 935b 51bc 9fd7 743c
00000080: 9643 86bd a4ab b5ba 335b 4ebd 0547 f0bd
00000090: af3d c2bc a0e5 04be 8eb5 e2bd 9c59 1bbe
000000a0: 0ceb f7bd b5f5 3ebe 7b61 6ebc 53fa 87bc
000000b0: d1e6 3fbd 35f2 5b3b 600c 5cbd b3ff d5bd
000000c0: 89d3 2bbd ea24 12bd 4c2a 943a 1e0f c83b
000000d0: 3b2e b33c 4ef4 b5bb d6b7 e5bd 2059 aebd
000000e0: 223f d2bd c1b8 38bb 89be 91bd b95a ab3c
000000f0: 83e3 a6bc c50a 4cbe be8c 3a3e 8ab8 863e
00000100: 5140 393d d5f6 ea3c ab22 233d 4c58 0f3c
00000110: 281e de3e d254 583e 4480 09bd 25e4 00bd
00000120: ba48 12be 1ce6 193e f015 293e d5ba 873e
00000130: eb7d 183e 57c6 8ebc bcc5 003e 9d73 9e3d
00000140: a708 dc3d ffff 1ebd 425e febf 0d2f b4bf
00000150: aa0a 8f3f aa42 ea3e db78 183e 42e0 b03e
00000160: 26a3 8abe 0348 01bf 5f1a 333d ab32 0a3f
00000170: 9846 aebe dd38 2fbd cec5 3cbf 8fa1 06bf
00000180: bc63 8abe d84e bbbe e4d7 15bf be74 5c3f
00000190: 954b 2cc0 865b f8be 8e69 243f 59c1 0d3f
000001a0: aa77 debe da3c 543f b7a5 763e 5895 2abe
000001b0: d01d 96bd b1d0 03be d917 1c3f 6196 873e
000001c0: ed8a e23c 3676 23bd c38b 29bd 50e2 c13a
000001d0: 674f 763e ef5d 4e3e d295 cd3d 0f34 16bd
000001e0: 2022 823b 1d4a a13d 7969 913d 1e68 d33e
000001f0: f0b8 883e 79ac f13c 1e95 4e3e 8af3 863e
00000200: c6e8 39be 91a8 2dbe fe3c 14be 55cb acbc
00000210: 4e85 e3bd efa3 2fbe f095 3abc 0ea6 5c3b
00000220: c0a7 58bc c909 2bbe 26a1 7c3d 2c46 8ebd
00000230: 6a4e 37be 5880 a1bd 6a15 113e 8dce f03d
00000240: db61 7bbd ddf1 e53c 1848 32be 2b88 da3c
00000250: 362f 833d 054f 0bbe 68fe 07bd e23e a4bd
00000260: 8e0a 3abd 796a 7abd 29c3 d0bd 5fcc 2abe
00000270: 3fd7 f9bc 96c8 6abd 4a28 343e b1a1 d63d
00000280: d6a7 12be 0b58 d63c 31f1 4bbd 3e90 3abe
00000290: c9a1 5dbd 716d a53c c3c0 08be 1ebe 86bd
000002a0: 4f86 fabd ce5c 22be 0535 06be 1376 42bd
000002b0: 7907 aa3c ecb9 163d 7d9a 30be b24d 7abd
000002c0: add0 2cbe 1ec4 57bd 8bc4 053d 278b dabb
000002d0: 3ac2 0bbe 9c70 b3bd bb8a e13d 5cfe d5bc
000002e0: bf82 35be 1517 08be 407c d5bd 82f1 66bc
000002f0: c884 533d b765 c1b9 f26f 52bc 421d 2abe
00000300: 64d7 da3d c3e0 333e c141 8cbc 8758 dabc
00000310: c807 0b40 6a7c d03e f104 05bf 29c8 a93c
00000320: e402 78be 0ab4 103e 2202 873d dc2f 2ebe
00000330: 3470 dbbc 6fa2 a43d ff98 26bc e3c4 dabe
00000340: 00e6 fb3d 05ce 493d 50a3 80bd 646e a33d
00000350: 2f0f ce3f 59e8 5a3e 9912 07bf 6ecc 9cbd
00000360: c979 bfbd ff2a b53d 98e3 4a3d 85b7 61bd
00000370: 5de7 e7bc 6f4c cbbd f870 ef3d b814 a2be
00000380: 2dc1 21bf 14a4 31bd 643b acbf d698 213f
00000390: 2a91 b2c0 bf9f 97bf 2383 923f 596f 253f
000003a0: 57c8 3bbf df91 8cbe 24e2 9d3d 2052 0f3f
000003b0: fd93 283e 300a 813d 9763 ce3d 706b f13e
000003c0: 4649 9d3d a935 393e a482 b9bd 0e38 4c3d
000003d0: e2e5 8f3f 29cf c73d 4f65 b2be 563d 83bd
000003e0: a7b2 74be 33ab 85bd ca4b 9b3a 5ac3 ff3d
000003f0: 56b3 143d 1651 2a3d d784 05bf 3234 1bbf
-0.043937277 -0.10014523 -0.027990416 -0.07505508 -0.01648092 -0.041341074 -0.08586466 -0.1713948
-0.04296229 -0.1819321 -0.055701066 -0.06483753 -0.10049191 0.030700846 -0.03322376 -0.020823928
0.02879978 -0.12914942 -0.12410368 0.039501313 -0.19528587 -0.08447244 -0.08692266 0.0116028385
-0.086749054 -0.041231345 -0.08150046 -0.147568 -0.14554957 -0.13880742 -0.012778181 0.014943986
-0.0655586 -0.0013860357 -0.050379943 -0.11732296 -0.023711054 -0.1297822 -0.11069785 -0.15170902
-0.121053785 -0.18648417 -0.014549608 -0.016598856 -0.046850983 0.0033561115 -0.05372274 -0.104491614
-0.041949783 -0.035679735 0.0011304109 0.0061053177 0.02187263 -0.005552805 -0.112167045 -0.08513093
-0.10265948 -0.0028186294 -0.0711642 0.020917283 -0.020372158 -0.19925983 0.18217751 0.26312667
0.045227353 0.028682152 0.039827984 0.008749079 0.43382382 0.21126106 -0.03356959 -0.031467576
-0.14285555 0.15029186 0.16512275 0.2650973 0.14891784 -0.01742856 0.1257543 0.07736895
0.10743838 -0.038818356 -1.9872515 -1.4076859 1.117513 0.45753986 0.14889853 0.34546095
-0.27077597 -0.50500506 0.04372632 0.53983563 -0.34038234 -0.04277884 -0.73739326 -0.5259027
-0.27029216 -0.3658359 -0.5853255 0.86115634 -2.6921132 -0.48507327 0.64223564 0.5537315
-0.4345067 0.8290535 0.24086653 -0.16658533 -0.07329905 -0.12872578 0.6097389 0.26481918
0.027654136 -0.039907657 -0.041393053 0.0014792178 0.24053727 0.2015302 0.100383416 -0.03667074
0.003971353 0.07875464 0.071001954 0.41290373 0.26703596 0.029501187 0.20174071 0.2635768
-0.18155202 -0.16958834 -0.14476392 -0.02109305 -0.1110941 -0.1715238 -0.011388287 0.0033668312
-0.0132235885 -0.16702951 0.06167712 -0.06946978 -0.17901006 -0.07885808 0.14168325 0.117581464
-0.06137262 0.028069431 -0.17410314 0.026676258 0.06405489 -0.13604362 -0.033201605 -0.080198064
-0.045420222 -0.061136696 -0.10193474 -0.16679524 -0.030498145 -0.0573202 0.17593494 0.10480059
-0.14321837 0.026165029 -0.049790565 -0.18219087 -0.05410937 0.020193787 -0.13354783 -0.06579231
-0.122326486 -0.15855715 -0.13106163 -0.047475886 0.020755516 0.036798403 -0.17246433 -0.061109252
-0.16876478 -0.052677266 0.03265814 -0.0066694203 -0.1364831 -0.08761713 0.11012789 -0.026122265
-0.17725657 -0.13290055 -0.104240894 -0.014095666 0.051640302 -0.00036887612 -0.012844073 -0.16612723
0.10685614 0.17566209 -0.017121198 -0.026653541 2.17235 0.4071992 -0.51960665 0.020725327
-0.24219853 0.1413118 0.06592204 -0.17010444 -0.026786901 0.08038794 -0.010168313 -0.42728338
0.122997284 0.04926874 -0.062811494 0.0798004 1.6098384 0.21377696 -0.5276275 -0.07656179
-0.093494006 0.088460915 0.049533457 -0.05510666 -0.028308565 -0.09926688 0.11691469 -0.31656432
-0.6318539 -0.043369368 -1.3455625 0.63123834 -5.58022 -1.1845626 1.144627 0.6462303
-0.7335257 -0.2745504 0.077091485 0.5598469 0.16462703 0.06300771 0.10077589 0.4715228
0.076799914 0.18086876 -0.09058121 0.049858145 1.124203 0.097563095 -0.34842917 -0.06408183
-0.23896275 -0.06526794 0.0011848148 0.12488432 0.03630384 0.041581236 -0.5215582 -0.6062652

layers.0.bias f4 [64]
00000000: a8ac abbd 382d 463f d744 50bd a389 42be
00000010: 3888 a0bd 14a9 223f f737 93bd 77a4 213f
00000020: bf5f 193e 1f00 fb3c 6beb ebbd c650 723f
00000030: e06a 34be 89b5 0abd d685 61be 9bda fdbd
00000040: e78a d5bd b054 7c3f 7989 b43b 09fd 623e
00000050: 0fe1 9dbd ac2b dcbd d794 60be 416e 753d
00000060: a9b0 14be b489 16be 1ec8 64bd d2cb 94be
00000070: 89c3 b63d 9fda 7dbe 4c77 0abe 5953 a8bc
00000080: d2a4 cbbe 834a 89be 5d4e 713d 43d7 26be
00000090: e05e d2bd 8656 babd e381 3abe ce7a 46bd
000000a0: 621c 3c3c 8137 28be 933e 07be 5def bebd
000000b0: 539b 56be 0688 173c 6b7b 4e3d 0fdc 18be
000000c0: 39e5 4b3c 546e c43e f04e 7fbe 7d36 0e3f
000000d0: 99ea aebd cf31 7ebe 3a24 663d b496 b6bd
000000e0: cff1 71be aade a93e be51 743c 8290 5fbd
000000f0: 6ee5 c6bd 722e 7d3e 335c 5ebe d1ae 013f
-0.08382541 0.7741275 -0.0508469 -0.18997817 -0.07838482 0.6353924 -0.07188409 0.6314158
0.1497793 0.030639706 -0.11519512 0.946545 -0.17618895 -0.03386453 -0.2202371 -0.12395211
-0.10426884 0.9856672 0.005509552 0.22166838 -0.07708942 -0.10750517 -0.21931778 0.0599196
-0.14520516 -0.14700967 -0.05585491 -0.29061753 0.08924014 -0.24790429 -0.1352207 -0.020547556
-0.39774185 -0.2681466 0.058912624 -0.16293053 -0.10272002 -0.09098534 -0.1821361 -0.04845696
0.011481376 -0.16427423 -0.13207464 -0.09322999 -0.20957689 0.009248739 0.05041067 -0.14927696
0.012444788 0.38365424 -0.24932456 0.5555189 -0.0854084 -0.24823688 0.056186892 -0.08915463
-0.23627399 0.33177692 0.014912067 -0.054581173 -0.09711729 0.24724749 -0.21714859 0.50657374

layers.1.weight f4 [5, 64]
00000000: 507a 543d 06d0 2c3c 8eaf f83d a785 04be
00000010: d0cc 53bd 20f6 4fbf 530d 83bd bdd6 563e
00000020: 917c edbd d61b 13be 9338 513c c751 143e
00000030: ad79 14bc 0933 b53d cf42 25bb 2567 4d3d
00000040: 629d 483d 73fc 43bf 4a4d d23c 53ab ffbd
00000050: d0b5 2fbe 2184 01bd 2600 ff3a 9311 863d
00000060: 0de2 41be dcc9 41bd 420c e2bd 4e19 353e
00000070: 3c31 473d 57ac 9ebe e894 e4bd 86e4 2dbd
00000080: 8c08 073e e5cc 153e 9deb 9f3d fea5 1c3e
00000090: 4ff5 e23d 4a8b 69be ce50 9bbe 7254 673d
000000a0: 7a17 403d 20b1 183d 878a 61be 1484 dd3d
000000b0: bdca 34be 70ee b03d fd0c 4abd 8b8d 523e
000000c0: 0642 fdbc 0ef3 ae3e df53 3d3e 42bb 963d
000000d0: 5724 873c 46a7 6abd ff21 99ba 5a86 0b3f
000000e0: d894 a3bd aa2f 963e 0410 ccbc bdfe 0ebd
000000f0: 43a8 203d 7a75 86bd 770c 083e 075e 453e
00000100: b703 523c 1988 40bf 92ff 23be 2199 f8bd
00000110: bb10 08bd 6ee3 113f cd75 4f3e a80e 483e
00000120: 187f 983c 4332 113d 3213 79bd 6180 353e
00000130: 099b 9fbd 50f0 8b3d fc55 6abb f41b 6b3d
00000140: f56c 20bd dd4c 273e e2fa 30bc d0d6 f9bd
00000150: ee0f 38bd 0c67 6f3c 1038 463b 17ce 33bd
00000160: 1762 333e 0f63 fbbd a0e9 bc3d ed63 9abe
00000170: 2842 9e3c 3de3 2dbd f694 aabc 5cbb d3bb
00000180: c6a1 d33d bdc4 143e d78a 7dbd 4456 303e
00000190: 0c01 463d 7d0d 2fbe 631b cc3d 87d8 843b
000001a0: e067 dfbb 0a33 da3d 6f6f c23e cf77 e2ba
000001b0: 83d5 3c3e 099e aabd 7cf6 87bd 5593 673d
000001c0: 43b5 31be 958d 0dbf fd7f 46bd 131b 15bf
000001d0: d2f0 513c 8a22 71bd f36a c9bc 3a46 50be
000001e0: 20f4 bf3d 2b40 debe fedc 3a3d 7ce2 913e
000001f0: b16a 0dbd 35b5 a7bc 2598 5ebe 3c0d a03d
00000200: 6c8e be3d 15d1 9f3e 7c82 823c 53c1 b13e
00000210: a70e 32be 3fd4 1a3f d3e3 3dbd 8f26 663e
00000220: e2a1 593e 58b2 b53d f5f7 4abd 6455 8bbf
00000230: 556a 863e 5143 ef3d 1127 633b f298 da3d
00000240: 7b9f e0bd a4c9 1b3e e50f f3bd 88b8 dfbd
00000250: 684e c43b 2238 263b 66e6 493b ea90 7cbd
00000260: bd81 70be ab8a 0ebe 03ae cb3d 47b8 c83d
00000270: b04e a43c b9fb c43e eb75 93bb 4174 0fbd
00000280: aeb2 96be 508d e9bc b37c 533d 6c54 163e
00000290: 6227 083e 0a8d 49be b84a c73d 8590 93bd
000002a0: b58b d5bd 0b74 b33d ed8e 3bbe 2710 81bd
000002b0: cbd2 7a3d 21d6 72bd 2e88 2dbd aa8c 74be
000002c0: 85a8 1abd ba8b e13d 6861 493d ccf5 863d
000002d0: d249 993d f883 083e f57b 3bbd 2e2c 5fbe
000002e0: b10e f63c 673f 79bc 79c0 283c e034 00be
000002f0: 3f9d 5abc dcc7 3abc c2d3 5c3e 757d 10bf
00000300: 8b29 57bd 3324 c23d 0cde dbbc 0013 84bd
00000310: c45e 883a e137 70bf 7150 32bc dc27 b6bf
00000320: 02b8 a5be 02cc ae3b a431 83bd 694d 453e
00000330: a88c 17be e5d5 ffbe 6d54 acbd ae0e 843c
00000340: 5202 fe3d 7255 3a3e 277f f9bc 5475 463e
00000350: 68b4 013d 217d 2c3d 7d5d 29be 6926 13bd
00000360: 3d69 86be 2849 863e 2503 c03d 4a04 5a3e
00000370: e544 9d3c 3559 da3b 8fd5 b63d 0fa4 de3d
00000380: 1b1e c93d 5e2e 17be 490b 523c 9d83 8fbe
00000390: 853a 173c c2b5 783e 9fab c63d 475c db3c
000003a0: 943f 9ebd 7276 9e3d e5d5 a1bd 2084 c43d
000003b0: 3272 c5bd e796 90bd ce10 0bbe 5da3 3d3e
000003c0: 3149 e23c 9cdc 76bb 1573 1fbd 72ba b03e
000003d0: 2004 c33c 20a5 37bc a0aa cb3e c127 43be
000003e0: f86d 37be 365a 873d 4524 4b3e d5c1 a03d
000003f0: 324f fe3c 83c5 343e 570d 9e3d b38c 19bd
0.05187446 0.0105476435 0.121428594 -0.1294161 -0.051708996 -0.8123493 -0.06399026 0.20980354
-0.11596025 -0.14366087 0.012769836 0.1448432 -0.009062213 0.08847625 -0.0025216823 0.050147194
0.048978217 -0.7655708 0.02567162 -0.124838494 -0.171592 -0.03162015 0.0019455 0.06546321
-0.18933888 -0.04731165 -0.11037494 0.17685434 0.048630938 -0.3099086 -0.11161214 -0.042454265
0.13186854 0.14628942 0.078086115 0.15297696 0.11081945 -0.22807041 -0.30335087 0.056477018
0.04689739 0.037278295 -0.220255 0.108162075 -0.17655464 0.08639228 -0.049328793 0.20561807
-0.030915271 0.3416981 0.18489026 0.07359935 0.01649682 -0.05728843 -0.0011683105 0.5450188
-0.07987374 0.2933324 -0.02490998 -0.034910906 0.039222967 -0.065653756 0.13286005 0.1927415
0.0128182685 -0.7520767 -0.16015461 -0.12138582 -0.03321908 0.56987655 0.20259781 0.19536841
0.01861529 0.035448324 -0.06080932 0.17724754 -0.077932425 0.06832945 -0.0035756817 0.057399705
-0.03916641 0.16337915 -0.010802003 -0.12199175 -0.044937067 0.014611971 0.0030245818 -0.043897714
0.17517887 -0.12274753 0.09224248 -0.30154362 0.019318655 -0.04245304 -0.020822983 -0.006461544
0.1033359 0.14528175 -0.061899986 0.17220408 0.048340842 -0.17094989 0.09966161 0.0040541324
-0.006817803 0.10654266 0.37975642 -0.0017278137 0.18440823 -0.08330924 -0.0663881 0.05653699
-0.17354302 -0.5529416 -0.048461903 -0.58244437 0.012813764 -0.05887083 -0.02458713 -0.2033929
0.09372735 -0.4340833 0.04562091 0.28493106 -0.034525577 -0.020472148 -0.21737726 0.07815024
0.093045086 0.31214204 0.01593136 0.34717807 -0.17388402 0.6048011 -0.04635985 0.22475646
0.2125316 0.08871907 -0.049552877 -1.0885434 0.26253 0.116827615 0.0034660737 0.10673703
-0.109679185 0.15213639 -0.11868266 -0.109238684 0.005990792 0.0025363048 0.0030807494 -0.06166164
-0.23486991 -0.13920085 0.099452995 0.09800773 0.020057052 0.384733 -0.004500141 -0.035022978
-0.29433197 -0.028509766 0.051632594 0.14680642 0.13296273 -0.19682708 0.09731048 -0.07205299
-0.104270376 0.08762368 -0.1831624 -0.06301909 0.061236184 -0.05928624 -0.0423662 -0.23881784
-0.03775837 0.11012979 0.04916516 0.06589851 0.07484783 0.13331592 -0.04577251 -0.21794197
0.030036302 -0.01521287 0.010299795 -0.1252017 -0.013343154 -0.011400189 0.21565154 -0.5644143
-0.052529853 0.09479561 -0.026839279 -0.064489365 0.0010404219 -0.93835264 -0.010883437 -1.4230914
-0.3236695 0.005334378 -0.064059526 0.19267811 -0.1479975 -0.49967876 -0.084145404 0.016120281
0.12402786 0.18196657 -0.030456139 0.19380695 0.03166619 0.04211152 -0.16539569 -0.035925303
-0.26252165 0.2622769 0.093756 0.21290699 0.01919789 0.0066634663 0.08927452 0.108711354
0.09820195 -0.14763781 0.012820073 -0.280301 0.009230261 0.24288085 0.09700703 0.0267774
-0.0772697 0.077374354 -0.07902125 0.09595513 -0.09640922 -0.07060032 -0.13580629 0.1851935
0.027622791 -0.0037668115 -0.03892811 0.34517246 0.023805678 -0.011208802 0.39778614 -0.19058134
-0.17913043 0.06609003 0.19838054 0.078494705 0.031043623 0.1765347 0.07717388 -0.037487697

layers.1.bias f4 [5]
00000000: 94cf bbbb 13a4 523d c1cc a03d 81d6 a43d
00000010: 6dde 13bf
-0.0057315324 0.051426005 0.07851554 0.08048726 -0.5776127
